checkpoints/BridgeModel_dec-True_sl256_pl1_dm16_bt32_wvsym3_tf7_df7_ptl16_stl8_sd42/checkpoint.pth (torch, 187831 bytes, 108 tensors)

corr_factor_weight f4 [18]
0	0x3f800000	1.0
1	0x3f800000	1.0
2	0x3f800000	1.0
3	0x3f800000	1.0
4	0x3f800000	1.0
5	0x3f800000	1.0
6	0x3f800000	1.0
7	0x3f800000	1.0
8	0x3f800000	1.0
9	0x3f800000	1.0
10	0x3f800000	1.0
11	0x3f800000	1.0
12	0x3f800000	1.0
13	0x3f800000	1.0
14	0x3f800000	1.0
15	0x3f800000	1.0
16	0x3f800000	1.0
17	0x3f800000	1.0

corr_factor_bias f4 [18]
0	0x00000000	0.0
1	0x00000000	0.0
2	0x00000000	0.0
3	0x00000000	0.0
4	0x00000000	0.0
5	0x00000000	0.0
6	0x00000000	0.0
7	0x00000000	0.0
8	0x00000000	0.0
9	0x00000000	0.0
10	0x00000000	0.0
11	0x00000000	0.0
12	0x00000000	0.0
13	0x00000000	0.0
14	0x00000000	0.0
15	0x00000000	0.0
16	0x00000000	0.0
17	0x00000000	0.0

position_scaler_mean f4 [18]
0	0xc1080d24	-8.503208
1	0x404e0636	3.219129
2	0xc0e1293f	-7.036285
3	0x3f2f264f	0.6841783
4	0xc0905d4f	-4.51139
5	0x401f5c54	2.4900103
6	0xbfc0e914	-1.507113
7	0x402e6bd5	2.7253315
8	0x3f821204	1.0161748
9	0x4038244e	2.8772159
10	0x401ff644	2.4994059
11	0x40284f52	2.6298413
12	0x40a071dd	5.0138993
13	0x405b040e	3.4221225
14	0x40d042d7	6.508159
15	0x3f8b3112	1.087435
16	0x41081dc1	8.507264
17	0x3fe18cc1	1.762108

position_scaler_std f4 [18]
0	0x3c09d996	0.008413693
1	0x409a34b7	4.818935
2	0x3c9cb2ae	0.01912817
3	0x40c3a343	6.1136794
4	0x3c3081f8	0.010773174
5	0x40afb1a0	5.4904327
6	0x3bcb0980	0.006196201
7	0x40a7e9e3	5.2473006
8	0x3c5889f4	0.013216484
9	0x408e5907	4.4483676
10	0x3c3afe51	0.011413173
11	0x408ebb9b	4.460401
12	0x3c89915d	0.016792947
13	0x40885ca2	4.2613077
14	0x3bf371f7	0.007429357
15	0x40bd0940	5.907379
16	0x3bbd1f42	0.0057715485
17	0x40aa0af0	5.313835

positionModel.wpmixerCore.Decomposition_model.dwt.h0 f4 [1, 1, 6]
0	0x3eaa53cb	0.33267054
1	0x3f4e9071	0.8068915
2	0x3eeb7510	0.4598775
3	0xbe0a4054	-0.13501102
4	0xbdaefbd6	-0.08544128
5	0x3d104972	0.035226293

positionModel.wpmixerCore.Decomposition_model.dwt.h1 f4 [1, 1, 6]
0	0x3d104972	0.035226293
1	0x3daefbd6	0.08544128
2	0xbe0a4054	-0.13501102
3	0xbeeb7510	-0.4598775
4	0x3f4e9071	0.8068915
5	0xbeaa53cb	-0.33267054

positionModel.wpmixerCore.Decomposition_model.idwt.g0 f4 [1, 1, 6]
0	0x3eaa53cb	0.33267054
1	0x3f4e9071	0.8068915
2	0x3eeb7510	0.4598775
3	0xbe0a4054	-0.13501102
4	0xbdaefbd6	-0.08544128
5	0x3d104972	0.035226293

positionModel.wpmixerCore.Decomposition_model.idwt.g1 f4 [1, 1, 6]
0	0x3d104972	0.035226293
1	0x3daefbd6	0.08544128
2	0xbe0a4054	-0.13501102
3	0xbeeb7510	-0.4598775
4	0x3f4e9071	0.8068915
5	0xbeaa53cb	-0.33267054

positionModel.wpmixerCore.resolutionBranch.0.patch_norm.weight f4 [18]
0	0x3e64b2d6	0.22333845
1	0x3d8a60db	0.06756755
2	0x3e202851	0.1564038
3	0x3d92bda2	0.07165076
4	0x3dbc3ddd	0.09191487
5	0x3d88dada	0.066823676
6	0x3db5cccf	0.08876955
7	0x3d92c43b	0.07166334
8	0x3d8a1e39	0.06744046
9	0x3d919e0b	0.071102224
10	0x3db95d53	0.09051003
11	0x3d934203	0.07190325
12	0x3da93c22	0.082634225
13	0x3d935c14	0.07195297
14	0x3d7fb768	0.06243077
15	0x3d920841	0.071304806
16	0x3da0f933	0.07860031
17	0x3d8d696d	0.06904874

positionModel.wpmixerCore.resolutionBranch.0.patch_norm.bias f4 [18]
0	0x3d332ec2	0.043745764
1	0x3bfdd990	0.0077468827
2	0x3c486892	0.012231963
3	0x3c636bbe	0.013880668
4	0x3bad7c69	0.005294372
5	0x3c04b1de	0.0080990475
6	0xbc7cb28a	-0.015423426
7	0x3c71691c	0.014734533
8	0xbc551b04	-0.013006929
9	0x3c3dd4b3	0.011586356
10	0x3b0997eb	0.0020995091
11	0x3c566ba7	0.01308719
12	0x3cce4082	0.025177244
13	0x3b6d9b1e	0.0036255787
14	0x3a7914d8	0.0009501702
15	0x3c982520	0.01857239
16	0x3d0b3793	0.033988547
17	0x3c8d3af8	0.017240033

positionModel.wpmixerCore.resolutionBranch.0.patch_norm.running_mean f4 [18]
0	0xbbd737f9	-0.0065679518
1	0xbb19e584	-0.002348275
2	0xbbf17f44	-0.0073699076
3	0xbb5e0b4c	-0.0033881245
4	0xbc9cd3ad	-0.019143904
5	0xbab3afee	-0.0013709047
6	0xbb3466bc	-0.0027527055
7	0xbaf72cf9	-0.0018858007
8	0x3b6dc565	0.0036280986
9	0xba99bd81	-0.001172945
10	0xbc256e25	-0.010097061
11	0xbad2a90b	-0.0016072107
12	0x3bd0894d	0.006364024
13	0xbaae2222	-0.0013285319
14	0xbc275142	-0.0102122445
15	0xbb302687	-0.0026878433
16	0x3b9cd300	0.0047858953
17	0xbb14d0bc	-0.0022707423

positionModel.wpmixerCore.resolutionBranch.0.patch_norm.running_var f4 [18]
0	0x3b54c5d2	0.0032466543
1	0x38ade63a	8.292166e-05
2	0x3aaccc08	0.0013183365
3	0x389b72a5	7.41233e-05
4	0x3a7e0839	0.00096905563
5	0x3887dfb0	6.478967e-05
6	0x3ad9658d	0.0016586051
7	0x38580f2c	5.1512543e-05
8	0x39f96d27	0.00047574306
9	0x3897cce0	7.238402e-05
10	0x3a4b6d91	0.0007760162
11	0x38b20c1b	8.489956e-05
12	0x39d30368	0.00040247594
13	0x38b1b43b	8.473588e-05
14	0x38ffd8dc	0.00012199741
15	0x386dca11	5.6693392e-05
16	0x3965e7bd	0.00021925471
17	0x38886f5a	6.505726e-05

positionModel.wpmixerCore.resolutionBranch.0.patch_embedding_layer.weight f4 [16, 16]
0	0x3d214f53	0.03938229
1	0x3d0dedba	0.03465054
2	0x3d00d075	0.0314488
3	0x3cf34176	0.0296943
4	0x3c14a830	0.009073302
5	0x3c89d401	0.016824724
6	0x3d1fd871	0.039024774
7	0x3c8c07c0	0.01709354
8	0x3911388e	0.00013849346
9	0x3ca31329	0.019906597
10	0x3c87ca07	0.016575826
11	0x3d04df03	0.032439243
12	0x3c93a829	0.018024521
13	0x3c8f9c4f	0.017530588
14	0x3ce5c4e9	0.028047996
15	0x3d2f6560	0.042821288
16	0x3d020fef	0.031753477
17	0x3c9ef055	0.019401709
18	0x3d0f68c5	0.035012025
19	0x3cf2554d	0.02958169
20	0x3d0e7b8a	0.034785785
21	0x3d443194	0.047898844
22	0x3d03aec2	0.032149084
23	0x3cdd1473	0.02698729
24	0x3c89af62	0.016807262
25	0x3cdecf4c	0.027198456
26	0x3d11b7e1	0.03557575
27	0x3d109283	0.035295974
28	0x3cff5bc8	0.031171694
29	0x3d3bf3c6	0.045886777
30	0x3d81ca3f	0.063374035
31	0x3d8783a0	0.06616902
32	0x3d5fd179	0.054643128
33	0x3d30ab76	0.043132268
34	0x3d3ad59b	0.045613866
35	0x3d490c9b	0.049084287
36	0x3d436ff7	0.0477142
37	0x3d80c770	0.0628804
38	0x3d6c58d7	0.05770191
39	0x3d01e21d	0.03170978
40	0x3d072a91	0.03299958
41	0x3d1d1ce2	0.038357623
42	0x3ceae6b2	0.028674457
43	0x3d21049e	0.039311044
44	0x3d19bc1a	0.037532903
45	0x3d08ee0f	0.033430155
46	0x3d14da87	0.036341216
47	0x3d3f45be	0.04669737
48	0x3d678de5	0.056531806
49	0x3cf62874	0.030048586
50	0x3d1145ea	0.035467066
51	0x3d1518e3	0.036400687
52	0x3d3feccc	0.046856686
53	0x3d3327af	0.043739017
54	0x3cf627b0	0.030048221
55	0x3d01ca67	0.031687167
56	0x3d01f49c	0.03172742
57	0x3d181094	0.037125185
58	0x3d0a414f	0.03375369
59	0x3d126d55	0.0357488
60	0x3d1b0a94	0.037851885
61	0x3d4d6a76	0.050150357
62	0x3d67ffcf	0.056640442
63	0x3d76fff0	0.060302675
64	0x3d1481aa	0.03625647
65	0x3cbafe86	0.022826444
66	0x3d122682	0.035681255
67	0x3d224001	0.03961182
68	0x3cc260dd	0.023727829
69	0x3ccddb0d	0.025128866
70	0x3d18f1a3	0.037339818
71	0x3ca3ff76	0.020019274
72	0x3cb6ee22	0.022330347
73	0x3d1309f1	0.035898153
74	0x3d0c07b2	0.034187026
75	0x3d0c52bf	0.0342586
76	0x3ceb8c24	0.028753348
77	0x3d1f8c78	0.03895232
78	0x3d3ea6dc	0.04654585
79	0x3d35a547	0.044347074
80	0x3d20898c	0.039193675
81	0x3cfd145e	0.0308935
82	0x3d17d530	0.037068546
83	0x3d0c6f22	0.034285672
84	0x3ce9b2ff	0.028527735
85	0x3d24975c	0.04018341
86	0x3d25dca5	0.040493626
87	0x3cf2d2e1	0.02964157
88	0x3ce0a186	0.02742077
89	0x3d0baaaa	0.034098305
90	0x3d127775	0.035758454
91	0x3d136ba1	0.035991315
92	0x3cde040c	0.02710154
93	0x3d204f00	0.03913784
94	0x3d301553	0.042989086
95	0x3d35abb9	0.04435322
96	0x3ccfb78a	0.025356073
97	0x3be27b74	0.0069116894
98	0x3c957f00	0.018249035
99	0x3cd1f90a	0.025631446
100	0x3c771806	0.015081411
101	0x3c8fa54d	0.017534876
102	0x3cab2202	0.02089024
103	0x3c6cbe20	0.014449626
104	0x3ca66fa6	0.02031691
105	0x3d0d4f33	0.03449936
106	0x3d1b0e55	0.037855465
107	0x3ce51aaa	0.027966816
108	0x3c842e65	0.016135404
109	0x3caa7e7e	0.02081227
110	0x3c9c2715	0.019061605
111	0x3d05026a	0.032473005
112	0x3cfe9cba	0.031080592
113	0x3cb8cbbe	0.02255809
114	0x3d1c35ed	0.038137365
115	0x3d10f482	0.03538943
116	0x3ce5b73c	0.028041475
117	0x3cf080f8	0.029358372
118	0x3cedc1d3	0.029023087
119	0x3c9f07ae	0.019412842
120	0x3c9b6085	0.018966923
121	0x3d00facb	0.031489175
122	0x3d00e005	0.03146364
123	0x3c86fa06	0.016476642
124	0x3cbe47df	0.02322763
125	0x3cfec82d	0.03110131
126	0x3d1646fa	0.036688782
127	0x3d2d03f5	0.0422401
128	0x3d40da0a	0.04708294
129	0x3cf1bbf6	0.029508572
130	0x3d405775	0.046958406
131	0x3d2bade4	0.041913882
132	0x3cefbcb6	0.02926479
133	0x3d167f1c	0.036742315
134	0x3d19ffdc	0.037597522
135	0x3cccef17	0.02501635
136	0x3cc56275	0.0240948
137	0x3ce35200	0.027749062
138	0x3cea52a6	0.028603863
139	0x3cd0651b	0.025438836
140	0x3cbc82e7	0.023011638
141	0x3d137337	0.03599855
142	0x3d1650c6	0.036698125
143	0x3d44ced4	0.04804881
144	0x3d52acc0	0.05143428
145	0x3d1399b7	0.036035266
146	0x3d06eac8	0.03293875
147	0x3cb3cea7	0.021949125
148	0x3cc6838d	0.02423265
149	0x3cfa1482	0.030527357
150	0x3c9daf27	0.019248558
151	0x3c5d9c33	0.01352601
152	0x3c968f84	0.01837898
153	0x3cd36ee3	0.02580971
154	0x3ccc56d0	0.02494374
155	0x3cd14ebd	0.02555024
156	0x3cc20616	0.023684543
157	0x3ca9a7c9	0.020709889
158	0x3cdc10a3	0.026863402
159	0x3d225c0b	0.03963856
160	0x3d1f2646	0.03885486
161	0x3cce742f	0.025201885
162	0x3d368ace	0.04456597
163	0x3d359db8	0.044339865
164	0x3d01d00b	0.031692546
165	0x3d249207	0.040178325
166	0x3cd4a809	0.025959032
167	0x3c043f63	0.008071753
168	0x3cacc28f	0.021088867
169	0x3d2ae702	0.041724212
170	0x3d1f544b	0.038898747
171	0x3d0e7fd5	0.03478988
172	0x3ce7beb0	0.02828917
173	0x3ce130cc	0.027489088
174	0x3d04f1ad	0.032457042
175	0x3d49239f	0.049106237
176	0x3cde1efc	0.027114384
177	0x3c6d9414	0.014500637
178	0x3c93ff99	0.018066214
179	0x3ca17d97	0.019713206
180	0x3ca58efe	0.020209786
181	0x3cb29c1d	0.021802956
182	0x3c928e46	0.017890107
183	0x3bbdc59f	0.0057913805
184	0x3c8d0b46	0.01721729
185	0x3ce81a3b	0.02833282
186	0x3c877fb7	0.016540391
187	0x3c61ffea	0.013793925
188	0x3c9c7976	0.019100886
189	0x3cade1db	0.02122586
190	0x3cc66341	0.02421725
191	0x3cdffde7	0.02734275
192	0x3d113c1a	0.035457708
193	0x3ce3a8f2	0.02779052
194	0x3d53cae8	0.05170718
195	0x3d3efd7e	0.046628468
196	0x3cf833a9	0.030298071
197	0x3cf58cbc	0.029974334
198	0x3d1d44e6	0.038395785
199	0x3d1599c5	0.0365236
200	0x3d01fea4	0.031736985
201	0x3d12298b	0.03568415
202	0x3d011af1	0.031519834
203	0x3d039f45	0.032134313
204	0x3d0dfe5b	0.0346664
205	0x3cb341ff	0.021882055
206	0x3d1bc98e	0.038034014
207	0x3d4a641c	0.049411878
208	0x3d12830e	0.035769515
209	0x3ca84b96	0.020543855
210	0x3cc70955	0.024296442
211	0x3cbc6e65	0.023001859
212	0x3cb1cd14	0.021704234
213	0x3cf9f0cb	0.030510327
214	0x3cc6495c	0.024204902
215	0x3c6b5337	0.014363102
216	0x3c76ab90	0.015055552
217	0x3c8b018a	0.016968507
218	0x3cd7ca3c	0.02634155
219	0x3d0e91e8	0.034807116
220	0x3cce5375	0.02518628
221	0x3d11b128	0.03556934
222	0x3d1a688f	0.03769737
223	0x3d775d26	0.060391568
224	0x3d06eb78	0.032939404
225	0x3cf44b91	0.02982119
226	0x3cbcc79b	0.023044398
227	0x3c904ae2	0.017613832
228	0x3ca1ac38	0.01973544
229	0x3cb6cb91	0.022313865
230	0x3cc63a82	0.02419782
231	0x3c3970de	0.011318414
232	0x3c4e0c1a	0.012576127
233	0x3c95dd79	0.018294083
234	0x3c7305eb	0.014832954
235	0x3ca0f033	0.019645786
236	0x3c97de82	0.018538717
237	0x3c81386d	0.015773976
238	0x3ccbca21	0.024876656
239	0x3d0b5d3b	0.03402446
240	0x3d1d1ab9	0.038355563
241	0x3c35b442	0.01109034
242	0x3cdab0dc	0.026695661
243	0x3cf0b324	0.029382296
244	0x3ce8494b	0.028355261
245	0x3ccc62e2	0.024949495
246	0x3cc21487	0.023691429
247	0x3c9827d4	0.018573679
248	0x3c85da1f	0.01633936
249	0x3cc1787f	0.023617027
250	0x3cb05b34	0.021527864
251	0x3cbe0b1b	0.023198655
252	0x3ce950ea	0.028480966
253	0x3cddd71c	0.027080111
254	0x3cf608a2	0.030033413
255	0x3d3cd21a	0.046098806

positionModel.wpmixerCore.resolutionBranch.0.patch_embedding_layer.bias f4 [16]
0	0xbc59d3ab	-0.0132950945
1	0x3ae0bacf	0.0017145517
2	0xbb852e4c	-0.004064357
3	0x3a546fb0	0.0008103801
4	0xbb94db2b	-0.0045427284
5	0xbc25d87a	-0.010122413
6	0xbc485666	-0.01222763
7	0xba308a6e	-0.0006734495
8	0xba350380	-0.00069051236
9	0xbb89a1ef	-0.004200212
10	0x3aa34fe4	0.0012459722
11	0xb852cd86	-5.025931e-05
12	0xbbe7b42f	-0.00707104
13	0x3b2a3167	0.0025969387
14	0x3bbbaa44	0.0057270844
15	0x3b98e383	0.0046657934

positionModel.wpmixerCore.resolutionBranch.0.mixer1.tMixer.layers.0.weight f4 [112, 16]
0	0xbbdb6143	-0.006694944
1	0xbbd9bdf2	-0.0066449577
2	0xbb87d445	-0.0041451775
3	0xbc125810	-0.008932129
4	0xbbf69f0d	-0.0075262845
5	0xbb0af898	-0.0021205302
6	0x3aac3111	0.0013137182
7	0xbb18e6e9	-0.0023330993
8	0xbb8d2fe3	-0.004308687
9	0xbb665497	-0.0035145634
10	0x3b0cedf4	0.0021504136
11	0x3b67a4e3	0.0035346083
12	0xbbb06624	-0.00538327
13	0xbb82e4cb	-0.0039945594
14	0xbac6da94	-0.0015171343
15	0xbb84654f	-0.0040403972
16	0xb9cf08a3	-0.00039488552
17	0xb9ec735f	-0.00045099386
18	0xb9045484	-0.00012619986
19	0xb9dd132d	-0.00042166692
20	0xb9f25f60	-0.00046228897
21	0xb9166975	-0.000143444
22	0x39428443	0.00018550553
23	0xba0e8989	-0.00054373645
24	0xba2cb2ab	-0.0006587903
25	0xb84a11f4	-4.8177273e-05
26	0x3a12edee	0.00056049123
27	0x3a9a28a0	0.0011761375
28	0xba319313	-0.000677393
29	0xb8039488	-3.1371164e-05
30	0x39b8807f	0.00035190952
31	0x38753f89	5.8471724e-05
32	0xba3ea314	-0.00072722253
33	0x3a95b433	0.0011421501
34	0x3bc5cb6c	0.0060362127
35	0x3c411f38	0.011787228
36	0x3be27e5b	0.0069120354
37	0x3b8fa4c2	0.0043836543
38	0x3a873892	0.0010316542
39	0x3b9565b2	0.004559242
40	0x3b8ba39d	0.0042614476
41	0xbbae24fa	-0.0053144665
42	0xbc43c49b	-0.01194873
43	0xbc2775d3	-0.010220963
44	0x3ba95399	0.0051674363
45	0xbaeb0740	-0.0017931238
46	0xbb37f529	-0.002806971
47	0xba62f010	-0.0008656988
48	0x3a5422fb	0.00080923707
49	0x3a27dc97	0.0006403415
50	0x39ee6ecf	0.00045477456
51	0x3ab2cec3	0.0013641942
52	0x3a622029	0.0008626008
53	0x39a268c0	0.00030977093
54	0xb9745a1b	-0.0002330322
55	0x3a0c419e	0.0005350354
56	0x39f29aae	0.00046273082
57	0x3a0a851d	0.00052841177
58	0xba2d6bb5	-0.0006615476
59	0xbaa992e8	-0.0012937458
60	0x3a63d5ad	0.0008691203
61	0x3a03ebc8	0.00050323876
62	0x399ccac5	0.00029905714
63	0x39e0f09b	0.00042903874
64	0xbb73ff04	-0.0037230859
65	0xbb57cb25	-0.003292748
66	0xbb8aad37	-0.0042320746
67	0xbc204a8c	-0.009783398
68	0xbbb25d12	-0.0054432238
69	0xba8e7a9b	-0.001087028
70	0x3a0ad878	0.00052965386
71	0xbb2ef9e3	-0.0026699237
72	0xbba167d8	-0.004925709
73	0xba9d75bc	-0.0012013237
74	0x3b8fad0a	0.0043846415
75	0x3b26cf74	0.0025453242
76	0xbbe3bb40	-0.006949812
77	0xbb3bd713	-0.002866213
78	0xb969d939	-0.00022301533
79	0xbaa8e82b	-0.0012886574
80	0xb9a7f0c3	-0.00032032104
81	0xbb5bac58	-0.0033519473
82	0xbbd73ef9	-0.006568786
83	0xbc1cfd2d	-0.009581846
84	0xbbc7c8e2	-0.006096945
85	0xbb1b8df8	-0.0023735743
86	0xba5a25e7	-0.0008321688
87	0xbaad48ff	-0.0013220607
88	0xbb4edf2f	-0.0031566133
89	0xba1aa338	-0.0005898955
90	0x3b869c32	0.0041079754
91	0xb90e0496	-0.00013543884
92	0xbc0c1960	-0.008550972
93	0xbb38c86b	-0.002819563
94	0xb96aa29d	-0.00022376557
95	0xbabfb1d4	-0.001462514
96	0x3cde18b6	0.027111392
97	0x3c2af5bf	0.010434567
98	0xbbb8e9e9	-0.0056431186
99	0xbc141fa3	-0.009040746
100	0xba78654d	-0.0009475544
101	0xbb183c04	-0.0023229131
102	0xbbe04ade	-0.0068448624
103	0xbb1c8d31	-0.0023887868
104	0xbbe1e6fd	-0.006893991
105	0x3c358e8b	0.011081348
106	0x3bea6a90	0.0071538165
107	0xbca5e39d	-0.020250136
108	0xbc8ee2a9	-0.017442064
109	0xb9fe314a	-0.00048483378
110	0xbb6fffed	-0.003662105
111	0xbb21add6	-0.0024670265
112	0x390fa0da	0.00013697465
113	0x39077ce5	0.0001292113
114	0x393afdde	0.00017832915
115	0x399d65e7	0.00030021297
116	0x3927091d	0.00015929756
117	0x38848c99	6.320439e-05
118	0x379278a6	1.7460738e-05
119	0xb6ad9da5	-5.174154e-06
120	0x37f370b5	2.902034e-05
121	0x38f17cbf	0.00011515011
122	0xb8aa4be3	-8.120367e-05
123	0xb90f70c5	-0.00013679553
124	0x38fa41fe	0.00011933221
125	0x38e29532	0.000108043096
126	0x38a6791c	7.938055e-05
127	0x39050cd9	0.00012688655
128	0xbc1c3225	-0.00953344
129	0xbbdbc085	-0.0067062997
130	0xbc4850e1	-0.012226314
131	0xbc9b46d2	-0.018954668
132	0xbc10d84a	-0.00884063
133	0xbc167a83	-0.0091844825
134	0xbbe5edb7	-0.007016863
135	0xbbfaa3fc	-0.007648943
136	0xbbd91dea	-0.0066258805
137	0xba3c7290	-0.0007188702
138	0x3c64d75f	0.013967364
139	0x3cb41b71	0.021985741
140	0xbb208251	-0.0024491737
141	0xbb609ec3	-0.0034274317
142	0x38c3f355	9.343649e-05
143	0xbb904a5d	-0.004403396
144	0xbbecff67	-0.007232595
145	0xbbb61596	-0.0055567725
146	0xba379652	-0.00070032955
147	0x3a71cf2f	0.0009224293
148	0xbb8152d8	-0.0039466433
149	0xbb4069a4	-0.0029359842
150	0xb9e32212	-0.00043322198
151	0x3a5575ee	0.0008142878
152	0x3af89bc9	0.0018967326
153	0xbb938b99	-0.0045027253
154	0xbb18eea5	-0.0023335603
155	0x3bb057d9	0.005381566
156	0x3abc2db0	0.0014356878
157	0xbb3104a0	-0.0027010813
158	0xba9be8d8	-0.0011894954
159	0xbaf86319	-0.0018950432
160	0x3b1ca43f	0.002390161
161	0x3ad00e51	0.0015873407
162	0x3a69e0c6	0.00089217385
163	0x3b19a76e	0.0023445743
164	0x3ae3fbcf	0.001739377
165	0x39a6c3fd	0.0003180801
166	0xba22a2cc	-0.0006204068
167	0x3a6af894	0.00089634326
168	0x3ac7543e	0.0015207601
169	0x3ad40069	0.0016174439
170	0x39f777c3	0.0004720074
171	0xbacda055	-0.0015688041
172	0x3a8052d0	0.0009790305
173	0x3a871e25	0.0010308666
174	0xb844e1a9	-4.6940204e-05
175	0x396d7fbe	0.00022649669
176	0x3c5de521	0.013543398
177	0x3b0ffe27	0.0021971555
178	0x3b0e06d8	0.002167156
179	0x3c7f1d5d	0.015570966
180	0x3c5df5b3	0.013547349
181	0x3c016fe0	0.007900208
182	0x3918d9ef	0.00014577036
183	0x3c013f1c	0.007888582
184	0x3c0a8d89	0.008456596
185	0xbb64a839	-0.0034890308
186	0xbc8b2967	-0.016987516
187	0xbce6c0ec	-0.028168164
188	0x3b8fbe4b	0.0043866984
189	0x3b9d7067	0.004804659
190	0xbab18f62	-0.001354676
191	0xba535a32	-0.00080624514
192	0x3b062e83	0.00204745
193	0xbb2cd7c8	-0.0026373733
194	0xbc144fc6	-0.009052223
195	0xbc8e169b	-0.017344764
196	0xbc05daf8	-0.008169882
197	0xbaf74dc7	-0.0018867784
198	0xb7cae9e7	-2.4189196e-05
199	0xbb12f045	-0.0022421044
200	0xbb313779	-0.002704112
201	0x3b2ca402	0.0026342873
202	0x3ba2e0c5	0.0049706423
203	0xbba3fffe	-0.005004882
204	0xbc601c99	-0.013678693
205	0xbb6d103e	-0.0036173011
206	0xba404b33	-0.00073354243
207	0xbb98f424	-0.0046677757
208	0xbe01e8ef	-0.12686513
209	0xbd8e63bf	-0.06952619
210	0xbc93c73a	-0.018039335
211	0x3d81c0ed	0.06335626
212	0x3da0c12c	0.078493446
213	0x3db4efad	0.08834777
214	0x3d66f5ed	0.056386877
215	0xbd02203e	-0.03176903
216	0xbe0187a7	-0.12649404
217	0xbe3e2818	-0.18569982
218	0xbe27f23f	-0.16401003
219	0xbe023a49	-0.12717547
220	0xbddbec71	-0.10738457
221	0xbdd6e9aa	-0.10493787
222	0xbe0d1f91	-0.13781573
223	0xbe156b92	-0.14591816
224	0xbc53dc89	-0.012930998
225	0xbb953a9b	-0.0045541055
226	0x3b0e7586	0.002173753
227	0x3a957b1b	0.0011404486
228	0xbc0c0360	-0.008545727
229	0xbbbeca3e	-0.005822449
230	0x3b31729a	0.0027076364
231	0xbc1c0169	-0.009521821
232	0xbc81443a	-0.015779603
233	0xbc0b4939	-0.008501344
234	0xbb321176	-0.0027171052
235	0x3c4327b4	0.011911321
236	0xbae59757	-0.0017516416
237	0xbbb6ee9a	-0.0055826427
238	0xbad8ce4c	-0.0016540973
239	0xbb425735	-0.002965403
240	0x3bba7bff	0.005691051
241	0xb9283a2f	-0.00016043404
242	0xbb7db14b	-0.0038710411
243	0xbaf26e69	-0.001849604
244	0x3aac8cb8	0.0013164496
245	0x3a4511c5	0.00075176015
246	0xba860125	-0.001022373
247	0x3b605c2c	0.0034234626
248	0x3b58ac54	0.00330617
249	0x36a3f720	4.8865477e-06
250	0xbb78bef3	-0.0037955611
251	0xbc2eb2e3	-0.010662767
252	0x3a457a11	0.0007533143
253	0x3b13e4a4	0.00225667
254	0xbb3437ec	-0.0027499152
255	0xbb2f3ee1	-0.002674036

positionModel.wpmixerCore.resolutionBranch.0.mixer1.tMixer.layers.0.bias f4 [112]
0	0x3ae28a02	0.0017283561
1	0xb924207a	-0.00015652357
2	0xbb291175	-0.0025797759
3	0x395cb7fd	0.00021049376
4	0xbb1900a6	-0.0023346334
5	0xbaf669c3	-0.001879983
6	0xbb298bb8	-0.0025870632
7	0xb8e50a31	-0.00010921469
8	0xbc2eddc9	-0.010672995
9	0xbb20f690	-0.0024561025
10	0x3b1ba259	0.002374789
11	0x3c49be18	0.012313388
12	0x3aef5d82	0.001826212
13	0xbce773dd	-0.02825349
14	0xbbb48280	-0.005508721
15	0xbb0d8874	-0.0021596225
16	0x3971afc7	0.00023049033
17	0xbc8df592	-0.017329011
18	0xbd2d8234	-0.0423605
19	0xbc64cce0	-0.013964862
20	0x3a9579d6	0.0011404108
21	0x39f0f68d	0.00045960062
22	0x3a12c323	0.00055985356
23	0x3c13689b	0.008997108
24	0x3b0bdd0e	0.0021341476
25	0xbb0fc708	-0.00219387
26	0xbb692084	-0.003557236
27	0xbb847b10	-0.0040429905
28	0xbc12309f	-0.008922725
29	0xba5f4c7b	-0.00085181714
30	0x3bf3d7dc	0.007441504
31	0xbbf91dbe	-0.0076024225
32	0xbafce7f7	-0.0019295205
33	0x3c23fa7d	0.0100084515
34	0xbd1cd004	-0.038284317
35	0xb9d530c5	-0.00040662862
36	0xbb4b8aad	-0.0031058
37	0xb5c9065b	-1.4977517e-06
38	0x3cb05d05	0.02152873
39	0xb8795d1d	-5.9452945e-05
40	0xb75de73f	-1.3226468e-05
41	0x384e0ae3	4.9124366e-05
42	0x3a7d5271	0.0009663469
43	0xbbc30a0f	-0.005952127
44	0xbb667691	-0.0035165886
45	0x3ba012a9	0.004885037
46	0xbc5541d8	-0.013016187
47	0xbc1b2401	-0.009469033
48	0xb992ab3f	-0.00027974878
49	0xbbcf4408	-0.0063252486
50	0xba0071eb	-0.00048997876
51	0x3ac313b2	0.0014883189
52	0x3bc8efb7	0.006132092
53	0xbc28a50d	-0.010293257
54	0xbaaeda34	-0.0013340176
55	0xbb23c92b	-0.0024991732
56	0x39e0928e	0.000428338
57	0x3bc9c347	0.006157312
58	0xbbdf21cb	-0.0068094484
59	0x3ab98d37	0.0014156465
60	0xb96a2a22	-0.00022331675
61	0xb74e8061	-1.2308447e-05
62	0x3ad1ec87	0.0016015925
63	0xbd24b3a4	-0.04021038
64	0xbb061617	-0.0020459944
65	0xb998d04f	-0.000291469
66	0x3ab587a1	0.0013849625
67	0x3bc2b142	0.005941541
68	0xbb15135a	-0.002274713
69	0x3c39d702	0.011342766
70	0xbbdd1aab	-0.006747564
71	0x3c29f263	0.010372731
72	0x3b41d5e2	0.0029576947
73	0xbd281b68	-0.04104176
74	0xbaeb8fe9	-0.0017971966
75	0xbb463283	-0.003024251
76	0xb9937faa	-0.00028133142
77	0x3cbb5c5a	0.022871185
78	0x3c0f5b43	0.008749786
79	0xbb7d1b2c	-0.0038620932
80	0xbb02e656	-0.0019973717
81	0xbbd09eed	-0.0063666017
82	0xbc35da97	-0.011099479
83	0xba711bd9	-0.000919757
84	0xbc16bea5	-0.009200727
85	0xbbde7005	-0.006788256
86	0xbcb434d0	-0.02199784
87	0xbc21e83b	-0.009882028
88	0x3b979fe2	0.004627214
89	0xbb5bf615	-0.0033563424
90	0xbb927895	-0.004469941
91	0xbc6687f3	-0.014070499
92	0xbb2aed5b	-0.0026081416
93	0x3ae9dfd3	0.0017843194
94	0x38a386ce	7.797555e-05
95	0xbcf647ef	-0.030063597
96	0x3af7bf4e	0.0018901618
97	0x3b0e8349	0.0021745733
98	0x3aeb1a3f	0.0017936899
99	0x3a8f8d3e	0.0010952128
100	0x3ab53a73	0.0013826623
101	0xbb4a6c78	-0.0030887406
102	0xbb03c941	-0.002010897
103	0x3be920b6	0.007114495
104	0xbb935e0f	-0.0044972966
105	0xbc092165	-0.008369778
106	0x3b1725e0	0.0023063347
107	0xb9d0fabb	-0.0003985966
108	0x3a6ad13b	0.00089575694
109	0xba0f6ce2	-0.0005471242
110	0xbba73991	-0.005103298
111	0x37d7ba6e	2.571681e-05

positionModel.wpmixerCore.resolutionBranch.0.mixer1.tMixer.layers.3.weight f4 [16, 112]
0	0x3b070c52	0.0020606709
1	0x38ac28c1	8.20919e-05
2	0x3b34f8af	0.0027614047
3	0xb9a5526d	-0.00031532664
4	0x3a390f3b	0.00070594595
5	0x39fea89c	0.0004857228
6	0xbb296cfb	-0.002585231
7	0x369b89e0	4.6354107e-06
8	0xbb64a802	-0.003489018
9	0x3ac08c45	0.0014690241
10	0xba522d0d	-0.00080175773
11	0x3b6a536f	0.0035755297
12	0x3aecfbbd	0.0018080395
13	0xbd8003a8	-0.062506974
14	0x3b19bc3d	0.0023458146
15	0x3b048936	0.0020223386
16	0xba614ee6	-0.00085948256
17	0xbb0c039a	-0.0021364451
18	0xbd9947b9	-0.07484383
19	0x3b62ecb6	0.0034625954
20	0x38a007cf	7.630849e-05
21	0xb99e70c7	-0.00030220134
22	0x38e2e3a2	0.0001081892
23	0x3c20eaaf	0.009821578
24	0x3a4904fe	0.00076682854
25	0x38cebeb0	9.858364e-05
26	0x3aa9a5d0	0.0012943093
27	0x3b34a21d	0.0027562447
28	0x3b2ce036	0.0026378757
29	0x3a876e37	0.0010332529
30	0xbbdf817b	-0.006820855
31	0x3b51e2ca	0.0032026046
32	0x3a14bb58	0.00056736683
33	0x3ba26e20	0.0049569756
34	0xbdbb3f91	-0.09142984
35	0xb93d09eb	-0.0001802814
36	0xbaa272cd	-0.0012393832
37	0xb69943c7	-4.5676456e-06
38	0x3a9b13d3	0.001183147
39	0xb71b9a13	-9.274593e-06
40	0x36a6a7c9	4.9667183e-06
41	0xb9618e69	-0.00021510724
42	0x3b657ade	0.0035015862
43	0xbb011159	-0.0019694178
44	0xb9951eed	-0.00028442536
45	0xb8a35aac	-7.7893346e-05
46	0x3ac54f51	0.0015053545
47	0xbbd057e5	-0.006358134
48	0x3804e733	3.1686573e-05
49	0x3a641df8	0.00087019755
50	0xbb296327	-0.0025846453
51	0xba2dc825	-0.000662925
52	0xbbb3c059	-0.005485576
53	0x39d78b37	0.0004111172
54	0x3a28e9fa	0.00064435566
55	0x3a7c61a6	0.0009627588
56	0x3a483fa9	0.00076388806
57	0x3b03c088	0.0020103771
58	0xbaa26e1f	-0.0012392438
59	0x3ab9078d	0.001411663
60	0x37e1baeb	2.690913e-05
61	0x380d6e5e	3.3719807e-05
62	0x3af12ea8	0.0018400745
63	0xbbd3a70e	-0.0064591235
64	0x3b8b9ce6	0.004260647
65	0x381e0f1f	3.7684218e-05
66	0xb73a635d	-1.1109599e-05
67	0xba931169	-0.0011220399
68	0x3a1a8592	0.00058945373
69	0xbaf7c832	-0.0018904267
70	0x3b9e0d54	0.004823366
71	0x3b53a8a1	0.0032296556
72	0xb95a2059	-0.0002080215
73	0xbc03ef3f	-0.008052646
74	0x3b1b650a	0.0023711347
75	0xbb37d499	-0.0028050302
76	0xb9c5d431	-0.00037732863
77	0xb896071d	-7.153882e-05
78	0x3a90f824	0.001106028
79	0x3b070867	0.0020604373
80	0xb94a0659	-0.00019266586
81	0x3bb4f24a	0.005522047
82	0x3b8a7bf0	0.0042262003
83	0x3b346c16	0.0027530245
84	0xb9378358	-0.0001750117
85	0xbad96800	-0.001658678
86	0xbd8290c8	-0.06375271
87	0x3ae956c4	0.0017802347
88	0x3ad20446	0.0016023002
89	0x3b8b338b	0.0042480878
90	0xb855b5fa	-5.0952636e-05
91	0x3b3a1bc8	0.0028397907
92	0xbb36b0ca	-0.002787637
93	0x39400d10	0.00018315413
94	0xb9e9058b	-0.00044445353
95	0xbd94bd29	-0.07262642
96	0x398af192	0.00026501395
97	0x3a7d95a5	0.0009673483
98	0x3a57ae46	0.0008227568
99	0x3b0ec7ae	0.00217865
100	0x3a579cb5	0.000822495
101	0x39777ea8	0.00023602939
102	0xbc34c39f	-0.011032968
103	0x3be6c7e2	0.007042871
104	0xb99b32e7	-0.0002960183
105	0x3b31f7bb	0.0027155716
106	0xbab48b82	-0.0013774487
107	0x39d636da	0.00040858128
108	0x3b9e27ca	0.0048265206
109	0x3b924d61	0.0044647907
110	0x393abf27	0.00017809552
111	0x39b9ca1f	0.00035436542
112	0x3b4f8c76	0.0031669415
113	0x383a2595	4.4380857e-05
114	0x3a81fcb1	0.0009917227
115	0xb98db179	-0.00027025843
116	0x3b205848	0.0024466682
117	0x3b26a625	0.002542862
118	0x3a8fe518	0.001097831
119	0xb800002f	-3.051775e-05
120	0xbae064e0	-0.0017119907
121	0x3b272016	0.0025501302
122	0xba6acb58	-0.0008956692
123	0x391bba30	0.00014851312
124	0x3b25c41b	0.002529389
125	0xbd822ea8	-0.06356555
126	0x3aee613e	0.0018186939
127	0x3ae21f46	0.0017251752
128	0xba516646	-0.0007987957
129	0xba9ea007	-0.0012102135
130	0xbd8d6295	-0.06903569
131	0x3bab3a5e	0.005225464
132	0x39b51e80	0.00034545735
133	0xba26de8e	-0.00063655607
134	0xb9527e77	-0.00020074272
135	0x3bfddd90	0.0077473596
136	0x3abd8e51	0.0014461969
137	0x3a6170f6	0.00085999013
138	0x3b5f4227	0.003406653
139	0x3b5ecaac	0.0033995314
140	0x3b86ee7b	0.0041177846
141	0x399ea8e1	0.00030261933
142	0xbbb5657a	-0.0055357786
143	0x3b815c08	0.0039477386
144	0x399c3f73	0.00029801912
145	0x3c0b05fc	0.0084853135
146	0xbda8577a	-0.0821981
147	0xbad4def6	-0.0016240764
148	0xbbba9ee3	-0.0056952103
149	0xb6c1d7f4	-5.7769885e-06
150	0x3b6f9eb7	0.0036563107
151	0xb8af0efd	-8.347442e-05
152	0x37864a8c	1.6008758e-05
153	0xb9e59a09	-0.0004379305
154	0x3b939f62	0.004505084
155	0xbb973a0a	-0.004615073
156	0x3a7a3dc4	0.0009545947
157	0x39774645	0.00023581933
158	0x3a7ef640	0.0009726025
159	0xbc2074e0	-0.00979349
160	0x385f0c71	5.317893e-05
161	0x3bb24bad	0.00544115
162	0xbbff3767	-0.007788587
163	0xb997e519	-0.00028971655
164	0xbb7d6e32	-0.0038670418
165	0xbb48a0a6	-0.0030613332
166	0x3b40d4a6	0.0029423623
167	0x3aa6c616	0.0012723829
168	0x3819743a	3.6586287e-05
169	0x3b52450f	0.003208462
170	0xbb2ed96e	-0.002667989
171	0x3ad1f2b3	0.0016017765
172	0x39ffc826	0.00048786512
173	0x381c3329	3.7240945e-05
174	0x3a9d78f4	0.0012014196
175	0xbc1f1575	-0.009709706
176	0x3bf225fc	0.007389782
177	0xb911ab91	-0.00013892191
178	0xba525d72	-0.00080247887
179	0xbacbdcee	-0.0015553513
180	0x3a8bfa01	0.0010679365
181	0x3be0b3d2	0.0068573738
182	0x3bec11db	0.007204277
183	0x3bba2dbc	0.0056817215
184	0xb91002ca	-0.00013733949
185	0xbc2d9e00	-0.010596752
186	0x3b1b4f6b	0.002369846
187	0xbb966e2e	-0.004590771
188	0xb9d18b4f	-0.0003996738
189	0xbbb5c727	-0.0055474225
190	0x3ab25ec6	0.0013608567
191	0x3b86a469	0.0041089547
192	0xbad01f76	-0.0015878517
193	0x3b31f45c	0.0027153706
194	0x3b933456	0.004492323
195	0x3b79b682	0.0038103168
196	0xbb1c2ae7	-0.0023829283
197	0xbbaae123	-0.0052148267
198	0xbd8025b7	-0.062571935
199	0xba213af7	-0.0006150449
200	0x3a9c195d	0.0011909414
201	0x3bceb0da	0.0063077034
202	0x39e33794	0.00043338223
203	0x3b327485	0.0027230096
204	0xbbae4f46	-0.0053195087
205	0xb9f16520	-0.00046042446
206	0xbad5c64c	-0.0016309707
207	0xbd966f9c	-0.073455065
208	0x39aeb392	0.00033321657
209	0x3a6db2c8	0.0009067473
210	0x3ab5691e	0.0013840531
211	0x3b1b63da	0.002371064
212	0x3a94ef28	0.0011362778
213	0xb926aaed	-0.00015894668
214	0xbc95c685	-0.018283138
215	0x3c174aad	0.009234113
216	0xbac0e513	-0.0014716707
217	0x3bb2d7dc	0.0054578613
218	0xbabbfb3c	-0.0014341841
219	0x3a0521d7	0.000507859
220	0x3b3e43ac	0.0029032035
221	0x3b7182c2	0.003685162
222	0x39efe8e8	0.0004575916
223	0xb827a487	-3.996913e-05
224	0x3b18225c	0.002321384
225	0xb9155b6d	-0.00014243806
226	0x3bc851f4	0.006113285
227	0xb92f52df	-0.00016720172
228	0x3a93f6a4	0.0011288715
229	0x3a593c1b	0.00082868495
230	0xbb4afc40	-0.0030973107
231	0xb7ac2d57	-2.052511e-05
232	0xbb92d5e7	-0.0044810656
233	0x3b62f2f3	0.0034629672
234	0xba3d8a85	-0.0007230419
235	0x3b35d85c	0.0027747368
236	0x3a72cae2	0.0009261799
237	0xbd837cab	-0.06420263
238	0x3b004d4b	0.001957732
239	0x3b49028d	0.0030671686
240	0xba2b91af	-0.0006544841
241	0xbb87f97d	-0.0041496144
242	0xbd96fdb6	-0.0737261
243	0x3bb270e9	0.005445589
244	0xb9b79944	-0.00035018672
245	0xb8befc46	-9.1068956e-05
246	0xba1016d2	-0.00054965646
247	0x3b786ddf	0.0037907285
248	0x3a1423c2	0.000565108
249	0x3baa482d	0.0051965923
250	0x3b725031	0.0036974067
251	0x3b1655b4	0.0022939267
252	0x3aa48aaf	0.0012553538
253	0xb8fedd24	-0.000121528545
254	0xbbf5697a	-0.0074893804
255	0x3b7916bb	0.0038007933

positionModel.wpmixerCore.resolutionBranch.0.mixer1.tMixer.layers.3.bias f4 [16]
0	0xbc17a1d5	-0.009254892
1	0xbb90051f	-0.0043951417
2	0xbbd758a0	-0.006571844
3	0xbb767a12	-0.003760938
4	0xbb8ac50a	-0.0042349147
5	0xbc44c122	-0.012008937
6	0xbc34f5b6	-0.01104491
7	0x3a93a86c	0.0011265404
8	0xbb3b0406	-0.0028536334
9	0xbc5cb6c0	-0.013471305
10	0xba5ad625	-0.000834795
11	0x3acedda4	0.0015782607
12	0xbac9820a	-0.0015373838
13	0xbbb73e7c	-0.0055921655
14	0xbaebccb2	-0.0017990081
15	0xbbf82fdf	-0.007574066

positionModel.wpmixerCore.resolutionBranch.0.mixer1.norm1.weight f4 [18]
0	0x3f38721b	0.7204911
1	0x3da43bd4	0.08019224
2	0x3eaf8349	0.3427985
3	0x3d8f0d1e	0.06984924
4	0x3d92328d	0.07138548
5	0x3d953e4c	0.07287273
6	0x3d387822	0.045036443
7	0x3d99e4d2	0.07514347
8	0x3dad0051	0.08447326
9	0x3d944a93	0.072407864
10	0x3dc47bc7	0.09593921
11	0x3d9d83c3	0.07691147
12	0x3dbb547e	0.09146975
13	0x3d919560	0.07108569
14	0x3d90a1d1	0.07062114
15	0x3d982b7a	0.074301675
16	0x3d9102a8	0.07080585
17	0x3d9de6af	0.07710015

positionModel.wpmixerCore.resolutionBranch.0.mixer1.norm1.bias f4 [18]
0	0x3e9487f4	0.29009974
1	0xbca34a8a	-0.019933004
2	0x3db12fdc	0.086517066
3	0xbc55438a	-0.013016591
4	0xbcbee63b	-0.023303142
5	0xbc9f70df	-0.019463
6	0xbbaa670e	-0.0052002734
7	0xbcb7cbd2	-0.022436056
8	0xbd006a7f	-0.031351563
9	0xbc672bbd	-0.014109549
10	0x3965cbb5	0.00021915029
11	0xbcbe0ff0	-0.023200959
12	0xbbbfbb3a	-0.0058511766
13	0xbccf2db1	-0.025290342
14	0xbc5cd54a	-0.013478586
15	0xbc0ac90e	-0.008470787
16	0xbd050164	-0.03247203
17	0xbc87f9d1	-0.016598614

positionModel.wpmixerCore.resolutionBranch.0.mixer1.norm1.running_mean f4 [18]
0	0x3c91369e	0.017726239
1	0xb9ae2e7e	-0.00033222506
2	0x3ae1e0cc	0.0017233132
3	0x3b539965	0.0032287475
4	0xbb6fb27e	-0.0036574895
5	0x3a136bb0	0.00056236517
6	0xbc42abad	-0.011881751
7	0x3b68dea0	0.0035533085
8	0xbc0d7a99	-0.008635187
9	0x3b25e9b3	0.0025316298
10	0xbb89202f	-0.004184745
11	0x3b23e290	0.0025006868
12	0x3bdd369d	0.006750895
13	0xba5eabc8	-0.00084942253
14	0xbb7df851	-0.0038752744
15	0x3bad36e8	0.0052860864
16	0x3c614561	0.013749451
17	0x3b6520a6	0.0034962087

positionModel.wpmixerCore.resolutionBranch.0.mixer1.norm1.running_var f4 [18]
0	0x3b8f6c55	0.004376928
1	0x3a722a10	0.0009237835
2	0x3b094e4b	0.0020951207
3	0x3a957704	0.0011403267
4	0x3a48ff41	0.00076674303
5	0x3a65c20c	0.0008764572
6	0x3a51cb7d	0.00080030394
7	0x3a7ddcd9	0.0009684093
8	0x3a106de8	0.00055095414
9	0x3a80ff85	0.0009841776
10	0x3a4c8af1	0.00078026863
11	0x3a7e55f4	0.0009702139
12	0x3a2e61d6	0.0006652152
13	0x3a80caf4	0.000982611
14	0x3a1515a5	0.0005687124
15	0x3a8916fc	0.001045912
16	0x3a29e651	0.0006481158
17	0x3a7475e0	0.0009325426

positionModel.wpmixerCore.resolutionBranch.0.mixer1.norm2.weight f4 [18]
0	0x3db1f87c	0.08689973
1	0x3d800273	0.06250467
2	0x3da5594b	0.08073672
3	0x3d847745	0.06468061
4	0x3d8eae02	0.06966783
5	0x3d81cf64	0.06338385
6	0x3d8bbaf9	0.068227716
7	0x3d811240	0.06302309
8	0x3d4a840a	0.04944233
9	0x3d835c2f	0.06414067
10	0x3d6c087c	0.05762528
11	0x3d87608c	0.06610212
12	0x3d67f0d9	0.056626175
13	0x3d873976	0.06602757
14	0x3d72bf2a	0.05926434
15	0x3d7fe195	0.06247099
16	0x3d83f18e	0.06442557
17	0x3d83ef28	0.064421

positionModel.wpmixerCore.resolutionBranch.0.mixer1.norm2.bias f4 [18]
0	0x38ab6e6f	8.174485e-05
1	0x3774c346	1.4588999e-05
2	0x3831de57	4.240716e-05
3	0x377c983c	1.5055815e-05
4	0x3262d164	1.3202541e-08
5	0x378865d9	1.625989e-05
6	0x37be9396	2.271849e-05
7	0x3734a847	1.0768016e-05
8	0xb5b3f12e	-1.3406732e-06
9	0x36988c1d	4.5462643e-06
10	0x370563bb	7.950638e-06
11	0x3785a65b	1.59323e-05
12	0xb70538f1	-7.9406755e-06
13	0x36ba2fa5	5.5487785e-06
14	0xb79f4385	-1.8985718e-05
15	0x378399a3	1.568796e-05
16	0xb6abc4d8	-5.1191128e-06
17	0x375a1fa3	1.3001179e-05

positionModel.wpmixerCore.resolutionBranch.0.mixer1.norm2.running_mean f4 [18]
0	0x3ca05061	0.019569578
1	0xbb1698a8	-0.0022979174
2	0x3c30f8c6	0.0108015
3	0xbb17ae9f	-0.0023144854
4	0xbb6fb901	-0.0036578777
5	0xbb3abc60	-0.0028493628
6	0x39cbc819	0.00038868262
7	0xbb3f4106	-0.0029183044
8	0xbb878d90	-0.0041367486
9	0xbb4d0093	-0.003128086
10	0x3ae300b4	0.0017318935
11	0xbb5100b1	-0.0031891281
12	0xb97a8ff5	-0.00023895486
13	0xbb9938d6	-0.004675965
14	0xbac816b6	-0.0015265557
15	0xba58eced	-0.0008275051
16	0xbbac1211	-0.005251177
17	0xbb323a08	-0.0027195234

positionModel.wpmixerCore.resolutionBranch.0.mixer1.norm2.running_var f4 [18]
0	0x3a771c8f	0.0009426558
1	0x39a69012	0.00031769328
2	0x3a1024ff	0.0005498677
3	0x39854f58	0.00025426853
4	0x38db65b7	0.000104616796
5	0x39866012	0.0002563005
6	0x384d3aa7	4.8930433e-05
7	0x39960c16	0.00028619234
8	0x39765ccd	0.00023494959
9	0x398bf939	0.0002669783
10	0x390332c5	0.00012512047
11	0x3998d326	0.00029149017
12	0x394cf1cf	0.00019545037
13	0x398bdbe8	0.0002667599
14	0x392297ec	0.00015506119
15	0x39910dff	0.00027666983
16	0x390ccb8e	0.0001342727
17	0x39a15239	0.00030769574

positionModel.wpmixerCore.resolutionBranch.0.mixer1.embeddingMixer.0.weight f4 [112, 16]
0	0xbb64976e	-0.0034880298
1	0x3a40bbaa	0.0007352183
2	0x3aa0046f	0.0012208353
3	0x3b1a49f0	0.0023542605
4	0x3afb2bb0	0.00191628
5	0xbbd8d467	-0.006617117
6	0xba3204ba	-0.00067908654
7	0x3a93bcd5	0.0011271486
8	0xbb400eeb	-0.0029305767
9	0xbb501a7d	-0.003175407
10	0x3ae260b8	0.0017271256
11	0xbb1f3a05	-0.0024296057
12	0xba57de9a	-0.00082347693
13	0x3af958da	0.0019023672
14	0xb8bf1bcf	-9.1127695e-05
15	0x3b06a048	0.0020542312
16	0xb99f04f8	-0.00030330545
17	0xb821dcfe	-3.8591206e-05
18	0xb9b7a8ae	-0.00035030156
19	0x39a5a8ce	0.00031597022
20	0x3996d730	0.00028770557
21	0xbaf40a9f	-0.0018618888
22	0xb9de9b39	-0.0004245879
23	0xb94312a3	-0.00018603592
24	0xbaf29c91	-0.0018509795
25	0xba05bc9c	-0.00051016524
26	0x3acc5c10	0.0015591402
27	0xba5478ed	-0.00081051775
28	0xba0100d6	-0.0004921084
29	0xb9927be4	-0.00027939596
30	0xba1785f9	-0.00057801564
31	0xb9a63b2f	-0.00031706083
32	0x80000027	-5.5e-44
33	0x0000004c	1.06e-43
34	0x80000057	-1.22e-43
35	0x00000006	8e-45
36	0x8000004b	-1.05e-43
37	0x0000004a	1.04e-43
38	0x00000047	1e-43
39	0x80000053	-1.16e-43
40	0x8000004c	-1.06e-43
41	0x80000040	-9e-44
42	0x80000054	-1.18e-43
43	0x80000046	-9.8e-44
44	0x80000049	-1.02e-43
45	0x00000059	1.25e-43
46	0x8000004d	-1.08e-43
47	0x00000046	9.8e-44
48	0x00000046	9.8e-44
49	0x0000004c	1.06e-43
50	0x0000004a	1.04e-43
51	0x80000049	-1.02e-43
52	0x8000004c	-1.06e-43
53	0x0000004d	1.08e-43
54	0x00000029	5.7e-44
55	0x00000048	1.01e-43
56	0x80000057	-1.22e-43
57	0x0000004a	1.04e-43
58	0x00000057	1.22e-43
59	0x00000050	1.12e-43
60	0x80000054	-1.18e-43
61	0x00000051	1.14e-43
62	0x8000004c	-1.06e-43
63	0x80000046	-9.8e-44
64	0x0019ee33	2.381337e-39
65	0x0006419c	5.74549e-40
66	0x000041a0	2.3542e-41
67	0x80287d63	-3.7184e-39
68	0x8014d72a	-1.913896e-39
69	0x80057ff5	-5.0508e-40
70	0x0016c56b	2.091201e-39
71	0x8002efa5	-2.69639e-40
72	0x00138124	1.791201e-39
73	0x00046cd6	4.06385e-40
74	0x003151ce	4.529285e-39
75	0x000240a6	2.06862e-40
76	0x8005dd57	-5.38579e-40
77	0x00097be4	8.70963e-40
78	0x00154603	1.953661e-39
79	0x800d7a17	-1.237659e-39
80	0x22299e62	2.2987618e-18
81	0xa1db689d	-1.4867708e-18
82	0xa1fd58a6	-1.7167412e-18
83	0xa0e30a5f	-3.846216e-19
84	0xa249f496	-2.7370062e-18
85	0x2301c4cf	7.03478e-18
86	0x222c7b8b	2.337575e-18
87	0xa14b0180	-6.878106e-19
88	0x2287317a	3.664421e-18
89	0x22a08425	4.3508e-18
90	0x2172324a	8.2059346e-19
91	0x222c34da	2.3338326e-18
92	0x2170714e	8.146512e-19
93	0x20c1366f	3.2731493e-19
94	0x21849bac	8.985874e-19
95	0xa1a8cda4	-1.1438555e-18
96	0x80000048	-1.01e-43
97	0x0000004b	1.05e-43
98	0x00000029	5.7e-44
99	0x80000059	-1.25e-43
100	0x80000050	-1.12e-43
101	0x8000004d	-1.08e-43
102	0x0000004a	1.04e-43
103	0x00000048	1.01e-43
104	0x80000056	-1.2e-43
105	0x00000049	1.02e-43
106	0x8000004e	-1.1e-43
107	0x80000053	-1.16e-43
108	0x0000004b	1.05e-43
109	0x00000055	1.19e-43
110	0x00000059	1.25e-43
111	0x00000049	1.02e-43
112	0x03128229	4.305496e-37
113	0x0220ddb7	1.1818573e-37
114	0x82d18d3d	-3.0790857e-37
115	0x831cd161	-4.6084635e-37
116	0x832582b8	-4.86392e-37
117	0x0426fbeb	1.9628881e-36
118	0x02ad734e	2.5486247e-37
119	0x0346f888	5.847227e-37
120	0x033659f7	5.3588268e-37
121	0x029bf102	2.2913535e-37
122	0x83168580	-4.423429e-37
123	0x830893ad	-4.013633e-37
124	0x8360305c	-6.5883197e-37
125	0x827961c3	-1.8321687e-37
126	0x83ef17d6	-1.405263e-36
127	0x828bea03	-2.055853e-37
128	0x2152195f	7.1184346e-19
129	0x1e5a6bf2	1.15631465e-20
130	0xa0659607	-1.9446694e-19
131	0xa0d40a31	-3.592094e-19
132	0xa0b74446	-3.1046585e-19
133	0x21c407aa	1.3283505e-18
134	0x20017b82	1.096759e-19
135	0xa00b1292	-1.1779902e-19
136	0x20fc7796	4.2769596e-19
137	0x2139085c	6.26915e-19
138	0x1e9806fb	1.6096513e-20
139	0x21658e1c	7.77763e-19
140	0x212c016d	5.8277754e-19
141	0x9eaff045	-1.8628219e-20
142	0x208ab2e1	2.3496481e-19
143	0xa089e11d	-2.335767e-19
144	0x80000096	-2.1e-43
145	0x80000004	-6e-45
146	0x00000028	5.6e-44
147	0x00000061	1.36e-43
148	0x000000d6	3e-43
149	0x80000060	-1.35e-43
150	0x80000017	-3.2e-44
151	0x0000005c	1.29e-43
152	0x8000002f	-6.6e-44
153	0x00000064	1.4e-43
154	0x0000006f	1.56e-43
155	0x80000100	-3.59e-43
156	0x000000d1	2.93e-43
157	0x80000093	-2.06e-43
158	0x80000039	-8e-44
159	0x800000eb	-3.3e-43
160	0x80000101	-3.6e-43
161	0x0000005b	1.28e-43
162	0x0000005c	1.29e-43
163	0x80000019	-3.5e-44
164	0x800000fd	-3.55e-43
165	0x80000079	-1.7e-43
166	0x80000009	-1.3e-44
167	0x800001fc	-7.12e-43
168	0x000000f4	3.42e-43
169	0x8000006c	-1.51e-43
170	0x80000234	-7.9e-43
171	0x000000d2	2.94e-43
172	0x800000d2	-2.94e-43
173	0x0000020d	7.36e-43
174	0x8000004b	-1.05e-43
175	0x00000023	4.9e-44
176	0x37ecafb4	2.821521e-05
177	0x3845aeb2	4.7131158e-05
178	0x39241373	0.00015647504
179	0x386e6903	5.684142e-05
180	0x38640f89	5.4373904e-05
181	0xb488540b	-2.5393123e-07
182	0x37916d18	1.7336148e-05
183	0x37567fc7	1.27851445e-05
184	0xb7d11297	-2.4923398e-05
185	0x37a6370b	1.9814373e-05
186	0x386530d9	5.4643348e-05
187	0x37110869	8.644632e-06
188	0x3889d859	6.572967e-05
189	0x38c3c884	9.3356735e-05
190	0xb5826a2f	-9.716658e-07
191	0xb86f2899	-5.701985e-05
192	0x8618efd1	-2.8764212e-35
193	0x05c48b5a	1.8482941e-35
194	0x0727f8cc	1.2636798e-34
195	0x071331e1	1.1073709e-34
196	0x077c93ea	1.9001841e-34
197	0x8734934d	-1.3584983e-34
198	0x0585c212	1.257855e-35
199	0x0614cf74	2.798812e-35
200	0x07b92204	2.7855699e-34
201	0x075b62e6	1.6504792e-34
202	0x06dec65f	8.37986e-35
203	0x08105d7c	4.3443314e-34
204	0x0896bec8	9.072649e-34
205	0x07ce41e3	3.103416e-34
206	0x07c15f75	2.9095517e-34
207	0x07a8cb77	2.5397416e-34
208	0xa67868a4	-8.61841e-16
209	0x264badf9	7.066555e-16
210	0x269ce26b	1.0886045e-15
211	0xa537f88d	-1.5956932e-16
212	0x2453649e	4.5838558e-17
213	0xa66c176c	-8.191069e-16
214	0xa58fe39e	-2.4960785e-16
215	0x24ebea76	1.02312196e-16
216	0xa6aa4cf3	-1.1816977e-15
217	0xa633a311	-6.2324097e-16
218	0x26143a37	5.142671e-16
219	0xa5079e11	-1.1762938e-16
220	0x2499a2a1	6.662868e-17
221	0xa690b7d1	-1.0041831e-15
222	0xa5561a9f	-1.8570561e-16
223	0x2606bbd5	4.674515e-16
224	0x1099ed06	6.071305e-29
225	0x1006a4b2	2.6553717e-29
226	0x0ef3d436	6.0108477e-30
227	0x91770f0a	-1.9489499e-28
228	0x9114866f	-1.1716567e-28
229	0x10ceaace	8.151584e-29
230	0x1011a1ff	2.8721005e-29
231	0x911f9116	-1.2587596e-28
232	0x10de5f2f	8.7710214e-29
233	0x10bd2042	7.4597057e-29
234	0x913553a6	-1.4304159e-28
235	0x907e97c4	-5.0209583e-29
236	0x9096e637	-5.951927e-29
237	0x0f9b5d19	1.532004e-29
238	0x90e12043	-8.879656e-29
239	0x90db7447	-8.655942e-29
240	0x086d2e8c	7.137431e-34
241	0x88290c62	-5.0871144e-34
242	0x882b67ff	-5.1580688e-34
243	0x881beeaa	-4.6924164e-34
244	0x8965aa58	-2.7644968e-33
245	0x08ea1d81	1.4090299e-33
246	0x074752ba	1.4995407e-34
247	0x883150fd	-5.33592e-34
248	0x09255377	1.9900398e-33
249	0x080421ef	3.9762194e-34
250	0x881668fa	-4.5262382e-34
251	0x0847896c	6.0045923e-34
252	0x893897fa	-2.2219653e-33
253	0x8940d033	-2.3209054e-33
254	0x88527b9f	-6.333989e-34
255	0x8903fff5	-1.5888902e-33

positionModel.wpmixerCore.resolutionBranch.0.mixer1.embeddingMixer.0.bias f4 [112]
0	0xbb2510ea	-0.0025187084
1	0xbc1f0a0e	-0.009706987
2	0x00000046	9.8e-44
3	0x00000046	9.8e-44
4	0x014158e4	3.5512277e-38
5	0xa1d1d059	-1.421754e-18
6	0x80000046	-9.8e-44
7	0x858bd4ed	-1.3149714e-35
8	0x215ee2c0	7.5516627e-19
9	0x80000695	-2.361e-42
10	0x00000e18	5.056e-42
11	0xb9c6a650	-0.00037889415
12	0x0a3e445c	9.161024e-33
13	0x272a0395	2.3594181e-15
14	0x934ffa19	-2.625038e-27
15	0x8b23cd25	-3.1546992e-32
16	0x1dbdda22	5.0253427e-21
17	0xb252a538	-1.2261175e-08
18	0x951abd23	-3.1249255e-26
19	0xb9fb0b49	-0.0004788286
20	0x909cd5db	-6.186065e-29
21	0x00000046	9.8e-44
22	0x80000048	-1.01e-43
23	0x182c8f68	2.230288e-24
24	0x80000d99	-4.878e-42
25	0x000019d3	9.264e-42
26	0x0000176a	8.4e-42
27	0x992733a5	-8.644127e-24
28	0x800014b9	-7.434e-42
29	0x891cbd56	-1.8866842e-33
30	0x000004e3	1.753e-42
31	0x00001606	7.9e-42
32	0x030c1e15	4.1176835e-37
33	0x0001cbf9	1.65007e-40
34	0x0000004a	1.04e-43
35	0x80002238	-1.2275e-41
36	0x38920fc6	6.9647605e-05
37	0xaaeb82be	-4.1835106e-13
38	0x9eeecf5f	-2.5284997e-20
39	0xb6783c04	-3.6989813e-06
40	0x80000046	-9.8e-44
41	0x9213e0e0	-4.66622e-28
42	0xb98fbc41	-0.00027415346
43	0x80001071	-5.898e-42
44	0x00000d81	4.844e-42
45	0x0000004c	1.06e-43
46	0xa8abdfd9	-1.9081892e-14
47	0x2dea669a	2.6648284e-11
48	0x80000047	-1e-43
49	0x130cf031	1.7788908e-27
50	0x8d430e26	-6.0106045e-31
51	0x00000b20	3.991e-42
52	0x9b397977	-1.5342089e-22
53	0x9f28e635	-3.5765807e-20
54	0x01726e0b	4.4527332e-38
55	0x80001118	-6.132e-42
56	0x80000048	-1.01e-43
57	0x931133fd	-1.8327205e-27
58	0x22841a6e	3.5806655e-18
59	0x11c36724	3.082914e-28
60	0x00b257a5	1.6378159e-38
61	0x3ac1aa30	0.0014775451
62	0x0b29e316	3.2719057e-32
63	0x267af58c	8.706895e-16
64	0x06e3273b	8.5445554e-35
65	0x29a00cb2	7.1076296e-14
66	0x15344c97	3.641113e-26
67	0xb83f61ef	-4.5629156e-05
68	0x3682864f	3.8899375e-06
69	0x00009067	5.1802e-41
70	0x80000046	-9.8e-44
71	0x104379f4	3.8550918e-29
72	0x00000052	1.15e-43
73	0xb1e07169	-6.5321513e-09
74	0x80000047	-1e-43
75	0x18c7fb65	5.1694138e-24
76	0x8eff7983	-6.2979365e-30
77	0x000455e8	3.9816e-40
78	0x1df4cd38	6.4798453e-21
79	0x80000046	-9.8e-44
80	0xa27c020c	-3.4153452e-18
81	0x9f6bee06	-4.9960074e-20
82	0x9bd16ce6	-3.4646524e-22
83	0x8000068e	-2.351e-42
84	0x302b44ca	6.230719e-10
85	0x00000081	1.81e-43
86	0xacfc2f51	-7.167524e-12
87	0x2ce902af	6.6225562e-12
88	0x110cb6d1	1.1100387e-28
89	0xae8f8382	-6.5262476e-11
90	0x80001646	-7.99e-42
91	0x80000046	-9.8e-44
92	0x8000004a	-1.04e-43
93	0x2707cca0	1.884594e-15
94	0x00000caa	4.543e-42
95	0x8000076b	-2.661e-42
96	0x2390fe16	1.5720121e-17
97	0x3b0565d3	0.0020354881
98	0xa6617077	-7.8214975e-16
99	0x00000046	9.8e-44
100	0x0000063d	2.238e-42
101	0x03f39cb3	1.4318233e-36
102	0x00000032	7e-44
103	0x12dd26dc	1.395664e-27
104	0x00001a49	9.43e-42
105	0x17391647	5.980484e-25
106	0x8000004d	-1.08e-43
107	0x00000048	1.01e-43
108	0x80000049	-1.02e-43
109	0x09c04378	4.6285766e-33
110	0x00000a5d	3.718e-42
111	0x000b21f4	1.02237e-39

positionModel.wpmixerCore.resolutionBranch.0.mixer1.embeddingMixer.3.weight f4 [16, 112]
0	0x3bc1b8f9	0.005911943
1	0x3b91c688	0.0044487156
2	0x00000046	9.8e-44
3	0x0000004a	1.04e-43
4	0x0044fa5e	6.334629e-39
5	0xa2fdfa9c	-6.884113e-18
6	0x0000004f	1.11e-43
7	0x854f1def	-9.738591e-36
8	0x20fdf470	4.3021622e-19
9	0x0000026a	8.66e-43
10	0x000006a5	2.384e-42
11	0xb59ed73b	-1.1834558e-06
12	0x095f651e	2.6890194e-33
13	0xa7cfb0f1	-5.764588e-15
14	0x923f0922	-6.028023e-28
15	0x8a6bdb0f	-1.1356039e-32
16	0x1e4814f0	1.0592242e-20
17	0x2fa0b778	2.9234193e-10
18	0x93e71f34	-5.8343367e-27
19	0xba0c59bd	-0.0005353948
20	0x902ec98f	-3.4470724e-29
21	0x80000048	-1.01e-43
22	0x80000046	-9.8e-44
23	0x1821191b	2.0821437e-24
24	0x8000027f	-8.95e-43
25	0x000004d5	1.733e-42
26	0x0000051a	1.83e-42
27	0x9931cd4f	-9.192147e-24
28	0x000001bc	6.22e-43
29	0x88094845	-4.131189e-34
30	0x80000374	-1.239e-42
31	0x0000015d	4.89e-43
32	0x82ff4893	-3.7510538e-37
33	0x00003ffa	2.295e-41
34	0x80000057	-1.22e-43
35	0x80000050	-1.12e-43
36	0xb98ba230	-0.00026632985
37	0x2d8d9bfd	1.6099117e-11
38	0x1e48f219	1.06379765e-20
39	0x360853ca	2.031435e-06
40	0x0000004a	1.04e-43
41	0x10bf03d2	7.53421e-29
42	0x398401ac	0.00025178248
43	0x80001255	-6.576e-42
44	0x000000d9	3.04e-43
45	0x8000004c	-1.06e-43
46	0x27391cd0	2.5689527e-15
47	0x2d9939af	1.7419703e-11
48	0x0000004d	1.08e-43
49	0x121a4af1	4.8686204e-28
50	0x8cc6727a	-3.0575628e-31
51	0x00000072	1.6e-43
52	0x1c8ec791	9.448358e-22
53	0x9f89fb43	-5.8437435e-20
54	0x00d82558	1.9849864e-38
55	0x80000396	-1.286e-42
56	0x0000004a	1.04e-43
57	0x937f3a40	-3.2214244e-27
58	0xa3d93c0b	-2.3552616e-17
59	0x10f069f5	9.482656e-29
60	0x0041a332	6.02785e-39
61	0xba936927	-0.0011246548
62	0x09bc8a9a	4.5389694e-33
63	0xa4fe9ee3	-1.10424105e-16
64	0x062edc33	3.288754e-35
65	0xa84afc82	-1.12680065e-14
66	0x146d6e34	1.1987176e-26
67	0xb7c1d9fc	-2.31089e-05
68	0xb7d4f17b	-2.5384817e-05
69	0x0000495a	2.6314e-41
70	0x8000004d	-1.08e-43
71	0x8f0eb1ee	-7.0354085e-30
72	0x00000048	1.01e-43
73	0x3258c13f	1.2616794e-08
74	0x80000047	-1e-43
75	0x179e318c	1.0223018e-24
76	0x8f0e9d1c	-7.031399e-30
77	0x001387e9	1.79363e-39
78	0x9c3ff5f6	-6.3514496e-22
79	0x0000004c	1.06e-43
80	0xa0e0f62e	-3.8109984e-19
81	0x1e113632	7.6874434e-21
82	0x1c2d4ccf	5.734017e-22
83	0x00000575	1.958e-42
84	0xaf6e40aa	-2.1668947e-10
85	0x00000b1d	3.987e-42
86	0xabd700b0	-1.527686e-12
87	0x2bdf2dea	1.5857847e-12
88	0x1016f102	2.976795e-29
89	0xad8bcabc	-1.5892503e-11
90	0x0000026d	8.7e-43
91	0x00000048	1.01e-43
92	0x00000046	9.8e-44
93	0x26c2b03e	1.3509225e-15
94	0x800001c9	-6.4e-43
95	0x800001ee	-6.92e-43
96	0x238cce49	1.5266196e-17
97	0x389bf062	7.435751e-05
98	0xa538b743	-1.6021547e-16
99	0x0000004a	1.04e-43
100	0x000002dc	1.026e-42
101	0x0300ae60	3.781599e-37
102	0x00000558	1.917e-42
103	0x11e1c71a	3.5621447e-28
104	0x0000003b	8.3e-44
105	0x16d90d1f	3.5066521e-25
106	0x80000048	-1.01e-43
107	0x00000046	9.8e-44
108	0x80000048	-1.01e-43
109	0x0c397025	1.4285629e-31
110	0x00000554	1.911e-42
111	0x0007af90	7.05828e-40
112	0xbbbb030c	-0.0057071503
113	0x3a87de35	0.0010365905
114	0x00000053	1.16e-43
115	0x8000004a	-1.04e-43
116	0x004259fd	6.093424e-39
117	0xa21083c1	-1.958539e-18
118	0x00000048	1.01e-43
119	0x8523e0e8	-7.705532e-36
120	0x218b103d	9.423305e-19
121	0x800000ef	-3.35e-43
122	0x00000458	1.558e-42
123	0xb8d438e8	-0.000101195474
124	0x08fb444a	1.5122568e-33
125	0xa67b5ea3	-8.7211375e-16
126	0x1187ed82	2.144562e-28
127	0x8a2bbdfe	-8.269084e-33
128	0x9e048b53	-7.016833e-21
129	0x3161a41f	3.2835101e-09
130	0x140a5a1e	6.984992e-27
131	0xb9ac954d	-0.00032917634
132	0x100f1b7f	2.822296e-29
133	0x00000049	1.02e-43
134	0x0000004c	1.06e-43
135	0x982d5d00	-2.2406679e-24
136	0x800004ad	-1.677e-42
137	0x000002ba	9.78e-43
138	0x00000767	2.655e-42
139	0x97353dca	-5.8562243e-25
140	0x0000034e	1.185e-42
141	0x886c0007	-7.10187e-34
142	0x800000b9	-2.59e-43
143	0x80000266	-8.6e-43
144	0x032596b0	4.8662123e-37
145	0x00009c5f	5.6095e-41
146	0x00000047	1e-43
147	0x800001a4	-5.89e-43
148	0xb9201809	-0.00015267743
149	0xac3ff404	-2.7278188e-12
150	0x1ea8a54a	1.7856054e-20
151	0x360ee970	2.1295527e-06
152	0x00000049	1.02e-43
153	0x10339ff4	3.542475e-29
154	0x392628e0	0.00015846221
155	0x00000247	8.17e-43
156	0x80000069	-1.47e-43
157	0x80000050	-1.12e-43
158	0x27918ae9	4.039619e-15
159	0xad424c7b	-1.1044605e-11
160	0x0000004a	1.04e-43
161	0x112be52e	1.3560143e-28
162	0x8cd0f3c7	-3.2194192e-31
163	0x800003c2	-1.348e-42
164	0x1bbf153f	3.161203e-22
165	0x9ee898f3	-2.4627214e-20
166	0x00907f75	1.3270034e-38
167	0x8000051d	-1.834e-42
168	0x8000004b	-1.05e-43
169	0x12d02a9e	1.3137151e-27
170	0xa231e9ec	-2.411181e-18
171	0x10b0ce8d	6.9738e-29
172	0x00236348	3.249858e-39
173	0xbad7cedf	-0.0016464851
174	0x09bcf534	4.548994e-33
175	0x255b3291	1.9012355e-16
176	0x06a45cac	6.182611e-35
177	0xa74c63f2	-2.8364868e-15
178	0x13fc2d6e	6.365854e-27
179	0x36a13aaa	4.8050033e-06
180	0xb7abc613	-2.0477024e-05
181	0x800582da	-5.06118e-40
182	0x80000046	-9.8e-44
183	0x0f7c7e61	1.2448899e-29
184	0x00000047	1e-43
185	0x3224a233	9.582936e-09
186	0x00000047	1e-43
187	0x96b2ad68	-2.8866886e-25
188	0x8fda1ac3	-2.1506768e-29
189	0x00104470	1.493919e-39
190	0x1d2d9131	2.2971422e-21
191	0x80000046	-9.8e-44
192	0x2085f2a4	2.2691642e-19
193	0x9d85b6bc	-3.539375e-21
194	0x9cab3126	-1.1328535e-21
195	0x000007e8	2.836e-42
196	0x2f67561e	2.1039923e-10
197	0x0000050c	1.81e-42
198	0xabee19fd	-1.691813e-12
199	0x2acf58c8	3.683219e-13
200	0x8fdc6385	-2.1732008e-29
201	0x2d12a3f8	8.3355475e-12
202	0x80000e6b	-5.172e-42
203	0x80000055	-1.19e-43
204	0x80000053	-1.16e-43
205	0x2616dd52	5.234165e-16
206	0x00000519	1.829e-42
207	0x80000317	-1.108e-42
208	0xa27b638c	-3.4069543e-18
209	0xb90f2aa3	-0.00013653426
210	0xa4b0e63a	-7.671785e-17
211	0x80000054	-1.18e-43
212	0x000003d9	1.38e-42
213	0x032bbcd1	5.0469134e-37
214	0x00000099	2.14e-43
215	0x1067cfbd	4.5716753e-29
216	0x000006d3	2.448e-42
217	0x96438271	-1.5793135e-25
218	0x80000047	-1e-43
219	0x8000004b	-1.05e-43
220	0x80000046	-9.8e-44
221	0x8aa1ce42	-1.5581322e-32
222	0x800001cb	-6.43e-43
223	0x00053b9a	4.80558e-40
224	0xbc098465	-0.008393382
225	0xbb5e0a56	-0.0033880672
226	0x00000046	9.8e-44
227	0x00000046	9.8e-44
228	0x00093317	8.44847e-40
229	0xa1a46032	-1.1138535e-18
230	0x80000047	-1e-43
231	0x852c5ba4	-8.104233e-36
232	0x223254df	2.4168429e-18
233	0x80000198	-5.72e-43
234	0x0000084a	2.974e-42
235	0xb84955c0	-4.8001995e-05
236	0x096a8050	2.8227058e-33
237	0xa7c2e36b	-5.4092384e-15
238	0x91d1e44b	-3.3115082e-28
239	0x8a2b4e7f	-8.248114e-33
240	0x1ee33b5c	2.405911e-20
241	0xb165b69c	-3.3427687e-09
242	0x93f2a9d0	-6.1256837e-27
243	0xb4ec4363	-4.4007456e-07
244	0x903dc875	-3.7428104e-29
245	0x00000049	1.02e-43
246	0x00000050	1.12e-43
247	0x184ea9a5	2.6710525e-24
248	0x800003e6	-1.398e-42
249	0x0000019d	5.79e-43
250	0x00000ba9	4.183e-42
251	0x99505835	-1.0771161e-23
252	0x00000191	5.62e-43
253	0x88426cc1	-5.850759e-34
254	0x0000050f	1.815e-42
255	0x000003b5	1.33e-42

positionModel.wpmixerCore.resolutionBranch.0.mixer1.embeddingMixer.3.bias f4 [16]
0	0xbacad323	-0.0015474301
1	0xbc681f05	-0.014167552
2	0x39ef73a6	0.00045671797
3	0x3ca19ad7	0.019727154
4	0x3c59d821	0.013296158
5	0xba59f385	-0.00083141803
6	0x3c1e8180	0.00967443
7	0x3b8fa71e	0.0043839356
8	0x3c0930f6	0.00837349
9	0x3b0f9ba9	0.002191285
10	0xbad07c28	-0.0015906142
11	0x3bd4e0c8	0.0064965226
12	0xbc0cffad	-0.00860588
13	0x3bdccc69	0.006738235
14	0xbc0d5126	-0.008625304
15	0xbc18d5a6	-0.0093282815
