checkpoints/BridgeModel_dec-True_sl48_pl1_dm16_bt32_wvsym4_tf9_df8_ptl10_stl5_sd42/checkpoint.pth (torch, 202927 bytes, 158 tensors)

corr_factor_weight f4 [18]
000000 00 00 80 3f 00 00 80 3f 00 00 80 3f 00 00 80 3f
       1.0 1.0 1.0 1.0
000010 00 00 80 3f 00 00 80 3f 00 00 80 3f 00 00 80 3f
       1.0 1.0 1.0 1.0
000020 00 00 80 3f 00 00 80 3f 00 00 80 3f 00 00 80 3f
       1.0 1.0 1.0 1.0
000030 00 00 80 3f 00 00 80 3f 00 00 80 3f 00 00 80 3f
       1.0 1.0 1.0 1.0
000040 00 00 80 3f 00 00 80 3f
       1.0 1.0

corr_factor_bias f4 [18]
000000 00 00 00 00 00 00 00 00 00 00 00 00 00 00 00 00
       0.0 0.0 0.0 0.0
000010 00 00 00 00 00 00 00 00 00 00 00 00 00 00 00 00
       0.0 0.0 0.0 0.0
000020 00 00 00 00 00 00 00 00 00 00 00 00 00 00 00 00
       0.0 0.0 0.0 0.0
000030 00 00 00 00 00 00 00 00 00 00 00 00 00 00 00 00
       0.0 0.0 0.0 0.0
000040 00 00 00 00 00 00 00 00
       0.0 0.0

position_scaler_mean f4 [18]
000000 24 0d 08 c1 36 06 4e 40 3f 29 e1 c0 4f 26 2f 3f
       -8.503208 3.219129 -7.036285 0.6841783
000010 4f 5d 90 c0 54 5c 1f 40 14 e9 c0 bf d5 6b 2e 40
       -4.51139 2.4900103 -1.507113 2.7253315
000020 04 12 82 3f 4e 24 38 40 44 f6 1f 40 52 4f 28 40
       1.0161748 2.8772159 2.4994059 2.6298413
000030 dd 71 a0 40 0e 04 5b 40 d7 42 d0 40 12 31 8b 3f
       5.0138993 3.4221225 6.508159 1.087435
000040 c1 1d 08 41 c1 8c e1 3f
       8.507264 1.762108

position_scaler_std f4 [18]
000000 96 d9 09 3c b7 34 9a 40 ae b2 9c 3c 43 a3 c3 40
       0.008413693 4.818935 0.01912817 6.1136794
000010 f8 81 30 3c a0 b1 af 40 80 09 cb 3b e3 e9 a7 40
       0.010773174 5.4904327 0.006196201 5.2473006
000020 f4 89 58 3c 07 59 8e 40 51 fe 3a 3c 9b bb 8e 40
       0.013216484 4.4483676 0.011413173 4.460401
000030 5d 91 89 3c a2 5c 88 40 f7 71 f3 3b 40 09 bd 40
       0.016792947 4.2613077 0.007429357 5.907379
000040 42 1f bd 3b f0 0a aa 40
       0.0057715485 5.313835

positionModel.wpmixerCore.Decomposition_model.dwt.h0 f4 [1, 1, 8]
000000 5f fc 03 3d df 80 4e bc 9e 33 cb bd d1 80 98 3e
       0.0322231 -0.012603967 -0.099219546 0.2978578
000010 d3 c1 4d 3f e0 c7 fe 3e 35 c6 f2 bc 0e 2b 9b bd
       0.8037388 0.49761868 -0.029635528 -0.075765714

positionModel.wpmixerCore.Decomposition_model.dwt.h1 f4 [1, 1, 8]
000000 0e 2b 9b bd 35 c6 f2 3c e0 c7 fe 3e d3 c1 4d bf
       -0.075765714 0.029635528 0.49761868 -0.8037388
000010 d1 80 98 3e 9e 33 cb 3d df 80 4e bc 5f fc 03 bd
       0.2978578 0.099219546 -0.012603967 -0.0322231

positionModel.wpmixerCore.Decomposition_model.idwt.g0 f4 [1, 1, 8]
000000 5f fc 03 3d df 80 4e bc 9e 33 cb bd d1 80 98 3e
       0.0322231 -0.012603967 -0.099219546 0.2978578
000010 d3 c1 4d 3f e0 c7 fe 3e 35 c6 f2 bc 0e 2b 9b bd
       0.8037388 0.49761868 -0.029635528 -0.075765714

positionModel.wpmixerCore.Decomposition_model.idwt.g1 f4 [1, 1, 8]
000000 0e 2b 9b bd 35 c6 f2 3c e0 c7 fe 3e d3 c1 4d bf
       -0.075765714 0.029635528 0.49761868 -0.8037388
000010 d1 80 98 3e 9e 33 cb 3d df 80 4e bc 5f fc 03 bd
       0.2978578 0.099219546 -0.012603967 -0.0322231

positionModel.wpmixerCore.resolutionBranch.0.patch_norm.weight f4 [18]
000000 2c 08 ae 3d 58 a6 6d 3d 43 a7 b5 3d 4e e4 54 3d
       0.084976524 0.058019966 0.08869793 0.05197554
000010 b8 14 a8 3d 53 c3 6f 3d d8 b7 aa 3d 8f e8 6a 3d
       0.08207077 0.058535885 0.08335847 0.05735069
000020 0e 14 59 3d 73 8e 80 3d 93 14 83 3d 40 1e 7e 3d
       0.05299764 0.0627717 0.064004086 0.062040567
000030 a2 59 78 3d dd 6e 82 3d db 59 82 3d 13 7d 58 3d
       0.060632356 0.06368802 0.06364795 0.052853655
000040 a6 15 58 3d 77 09 6a 3d
       0.05275502 0.057137933

positionModel.wpmixerCore.resolutionBranch.0.patch_norm.bias f4 [18]
000000 00 63 b3 3c 55 7d e5 bb 2f cd 06 3d fc 0e 7c ba
       0.021897793 -0.007003466 0.032910522 -0.000961527
000010 52 78 11 3d a5 c3 f9 bb 2d bb fd 3c 52 b9 b0 bb
       0.035515137 -0.0076221996 0.030973041 -0.0053931857
000020 d4 19 d0 bc 79 b7 0f bc 73 e5 97 3c 86 16 06 bc
       -0.02540294 -0.008771771 0.018542027 -0.008184081
000030 bd f8 e0 bc 27 1a 26 bc a4 86 cc ba 9b 41 60 bb
       -0.027462358 -0.010138071 -0.0015604091 -0.0034218791
000040 d4 92 7f bc 14 7f a6 bb
       -0.015598971 -0.005081067

positionModel.wpmixerCore.resolutionBranch.0.patch_norm.running_mean f4 [18]
000000 f8 ee d4 3a 8b 2c 1a 3a 70 0b 03 3b 55 c1 a7 3a
       0.0016245535 0.0005881271 0.001999583 0.0012798706
000010 a2 af e1 ba 7f 3a 75 3a 51 95 86 3b 80 1b 29 3a
       -0.001721848 0.0009354725 0.0041071554 0.0006450936
000020 b6 bf 43 bb af f9 61 3a 89 4e 9b b9 8c 84 39 3a
       -0.0029868907 0.00086202746 -0.00029622417 0.0007076941
000030 ba b0 88 ba 4d 91 70 3a 53 74 9b bb ce b3 53 3a
       -0.0010428645 0.0009176925 -0.0047440915 0.0008075804
000040 44 bd 4f 3a ff ba 33 3a
       0.0007924626 0.00068561727

positionModel.wpmixerCore.resolutionBranch.0.patch_norm.running_var f4 [18]
000000 a5 5e fb 38 4f 44 8f 37 08 46 de 38 e9 11 a7 37
       0.000119862416 1.7078737e-05 0.00010598829 1.9916291e-05
000010 53 62 63 38 b2 6a a0 37 50 80 58 38 55 14 7f 37
       5.421259e-05 1.912317e-05 5.1617913e-05 1.5203918e-05
000020 c7 49 d5 37 a6 fe 9f 37 4a c9 09 38 ad 06 94 37
       2.5425934e-05 1.9072857e-05 3.285081e-05 1.7646084e-05
000030 90 19 be 37 e2 64 af 37 44 6f 0d 38 57 48 93 37
       2.2661668e-05 2.0908603e-05 3.3720644e-05 1.7557451e-05
000040 af 61 4f 38 92 b8 93 37
       4.944362e-05 1.7609713e-05

positionModel.wpmixerCore.resolutionBranch.0.patch_embedding_layer.weight f4 [16, 10]
000000 5c fd 4d ba 87 94 78 39 f3 d3 83 ba da 4e d5 ba
       -0.0007857883 0.00023706454 -0.0010057673 -0.001627411
000010 ce 76 c0 37 15 b3 c4 ba 65 a8 9e b9 b8 33 7f 39
       2.2943506e-05 -0.0015006984 -0.00030261572 0.00024337962
000020 28 64 20 ba 70 41 2c 3a ef 3a 73 3c 94 50 cc 3b
       -0.000611844 0.000657103 0.014845594 0.0062351916
000030 30 fa 62 3d 6f e0 ec 3c 61 87 9c 3c 5c 7f b6 3c
       0.05541438 0.028915612 0.019107522 0.022277527
000040 2c 39 24 3c ea 0e b6 3a 2d 00 9d 3c 12 9c d9 bb
       0.010023396 0.0013889943 0.019165123 -0.0066409195
000050 ce dd af ba 6b a1 b2 39 4b c1 a5 b9 e3 a9 c8 ba
       -0.0013417543 0.0003407107 -0.00031615267 -0.0015309419
000060 af 59 21 b8 64 a1 03 bb 33 4d b6 b9 56 5c 1b 39
       -3.8468916e-05 -0.002008521 -0.00034771263 0.0001481635
000070 cb 1a cf ba b4 c3 50 b9 fd fe f6 3b 9a 7c 4c bb
       -0.0015800832 -0.00019909331 0.007537721 -0.0031202198
000080 61 00 5d 3d 5e 5c 0c 3d c7 18 9d 3c a4 33 ab 3c
       0.05395544 0.034267776 0.019176854 0.020898648
000090 c7 fb 5a 3c b9 45 56 3b 21 6b ce 3c 7e cf 40 bb
       0.013365692 0.0032695367 0.025197567 -0.002942055
0000a0 15 7c 6c 3c 19 e5 32 3b 55 21 4f 3d 25 6d dd 3c
       0.01443388 0.0027297197 0.050568897 0.027029583
0000b0 62 33 b0 3c 21 46 c7 3c 3e ea 0c 3c 06 dc 86 3b
       0.021508876 0.024325432 0.00860077 0.0041155843
0000c0 5b 45 e9 3c cb a1 80 ba 8c b3 a6 39 2c 48 40 39
       0.028475454 -0.0009813843 0.0003179576 0.00018337433
0000d0 73 8d 63 ba d4 f9 c4 ba bf 6a 54 b8 80 5c f2 b9
       -0.00086804404 -0.0015028068 -5.0644154e-05 -0.00046226755
0000e0 60 a4 42 b9 ec b2 40 b9 af 8f 87 ba 75 10 19 3a
       -0.00018562516 -0.000183772 -0.0010342504 0.0005838939
0000f0 11 fa 6a bc ac 1e 86 bb d9 a6 5f bd 02 5b fc bc
       -0.014341847 -0.004093012 -0.054602478 -0.030805115
000100 46 33 91 bc 11 25 9d bc 91 44 a5 bb b8 fd 7c bb
       -0.017724644 -0.019182714 -0.005043574 -0.0038603377
000110 2f 92 e5 bc d6 2b cb 3a d4 00 9f 3a 22 d0 c1 b7
       -0.028023807 0.0015500735 0.0012130984 -2.3104312e-05
000120 df a0 43 b9 b7 90 36 ba b7 dc 24 ba 7f b4 f1 3a
       -0.00018656578 -0.0006964313 -0.00062889926 0.0018440633
000130 94 18 a2 b6 1a c3 9e ba 8d c6 96 38 e9 ef 5a 3a
       -4.8308375e-06 -0.0012112588 7.18954e-05 0.00083517894
000140 68 87 4c bc a9 e0 95 ba fd 72 78 bd 59 3d 18 bd
       -0.012483455 -0.0011434752 -0.060656536 -0.03716788
000150 d0 2f 8a bc 73 03 95 bc f8 5f cb bb 24 f9 11 39
       -0.016868502 -0.018190121 -0.0062065087 0.0001392109
000160 d3 7b bc bc 32 51 14 3c 74 6f 1e 3c b6 70 a7 3a
       -0.023008263 0.009052562 0.009670127 0.0012774679
000170 e6 e8 62 3d b5 bb 0d 3d 8b b6 be 3c c1 1b 9a 3c
       0.05539789 0.03460284 0.023280403 0.018812062
000180 20 52 0f 3c 13 44 53 3b 09 27 b9 3c ad ca 99 bb
       0.0087476075 0.003223662 0.022601621 -0.0046933503
000190 b4 47 9f bc ef 63 ea bb 38 4a 8c bd cd 80 33 bd
       -0.01944337 -0.0071530263 -0.068500936 -0.043824006
0001a0 d0 60 d4 bc 62 36 ca bc 10 67 47 bc f6 6a ae bb
       -0.02592507 -0.024684135 -0.012170568 -0.0053228093
0001b0 00 5f df bc 36 e3 02 3c 54 89 57 3c 3e 8a 84 3b
       -0.02726698 0.007988742 0.0131553 0.0040448
0001c0 7c d2 fb 3c 15 f2 a5 3c 9d 3a 6c 3c 1c 90 87 3c
       0.030740015 0.020257035 0.014418271 0.016548209
0001d0 aa 07 1a 3c 1f f2 be 3b 82 bd c2 3c 7b 5a cb 3a
       0.009401241 0.005827203 0.023772005 0.0015514636
0001e0 86 ed 98 bc 8f c8 fb bb 89 38 83 bd b8 fb 26 bd
       -0.018667948 -0.0076838206 -0.064072676 -0.0407674
0001f0 f1 be e4 bc ce b1 e4 bc e8 ed 25 bc 11 d4 8f bb
       -0.02792308 -0.027916815 -0.010127522 -0.004389294
000200 bc 65 de bc a8 ce ba 3b ed 2f 84 3c 7c 38 8d 3b
       -0.02714812 0.005700905 0.016136134 0.004309712
000210 a5 67 31 3d ed 72 c3 3c b8 75 7a 3c 8c f3 a3 3c
       0.043311734 0.023858512 0.015286855 0.020013593
000220 ed 59 30 3c fc 73 92 3b de 07 a5 3c 3c 37 82 bb
       0.0107636275 0.004469393 0.020145353 -0.0039738696
000230 c2 94 6d bc ee 03 c7 bb 87 ef 5d bd d3 11 01 bd
       -0.014500799 -0.0060734665 -0.05418351 -0.03151114
000240 bf 64 b8 bc 58 7d c9 bc ca bc 49 bc 48 1a a5 bb
       -0.022508977 -0.024595901 -0.012313077 -0.0050385334
000250 16 f6 da bc f1 37 c4 3b e3 d8 39 3a 69 72 0c 3a
       -0.026728671 0.005988114 0.00070895086 0.00053576246
000260 1e e7 06 3a 90 58 31 b8 ff 0d a1 b5 6e 4c 60 b9
       0.00051461335 -4.228257e-05 -1.1999508e-06 -0.00021390777
000270 8b 35 19 39 4d 72 ca 39 f8 4b b7 39 c9 ea 09 3a
       0.00014611163 0.00038613603 0.0003496108 0.0005261121

positionModel.wpmixerCore.resolutionBranch.0.patch_embedding_layer.bias f4 [16]
000000 c7 5a f9 b9 e9 64 23 39 9a 01 8c b9 f8 d4 42 ba
       -0.00047560615 0.00015582483 -0.00026704074 -0.00074322475
000010 b7 74 40 b7 74 1e ee 38 73 6c 37 ba 33 47 fe 39
       -1.1471267e-05 0.00011354397 -0.0006997056 0.00048499703
000020 8f 93 36 3a d7 90 3a 3a a7 40 df ba 69 8b 90 39
       0.0006964737 0.000711692 -0.0017032818 0.0002756969
000030 88 98 e5 ba ba 1d 80 3a aa 00 d9 b8 c7 c4 17 3a
       -0.0017516771 0.0009774484 -0.0001034749 0.0005789515

positionModel.wpmixerCore.resolutionBranch.0.mixer1.tMixer.layers.0.weight f4 [27, 3]
000000 be 91 88 3b f1 14 08 bc 9c b1 43 bb 20 34 35 aa
       0.0041677644 -0.008305774 -0.0029860502 -1.6094114e-13
000010 c9 c7 15 2b c1 c6 ab 2a 0b 7c 6c 3d 36 7d 77 3d
       5.321269e-13 3.0513615e-13 0.057735484 0.060422145
000020 49 20 43 3d 77 ab 1d 34 40 74 6a 35 30 b4 51 35
       0.04763821 1.4684143e-07 8.734096e-07 7.8120775e-07
000030 14 c2 84 37 5e dc af 36 80 b8 8b 37 3e 32 8c 3d
       1.5826e-05 5.2410605e-06 1.6656006e-05 0.068455204
000040 81 9c 8c 3d b6 d1 54 3d 40 17 fc 3a ce 85 0a bc
       0.06865788 0.05195781 0.0019233003 -0.008454753
000050 12 88 dc bb 2d 0a 1e b0 fa fd 3c b1 0e 0e a1 b1
       -0.006730088 -5.7494526e-10 -2.750197e-09 -4.6873145e-09
000060 be e5 19 3b f1 9a 02 3c 55 27 ab 3b e2 e4 78 36
       0.0023482884 0.007971511 0.0052231946 3.7088107e-06
000070 5f 5f b2 b7 b7 af 87 b7 fa 1f 7a bd 71 46 86 bd
       -2.1263664e-05 -1.6175078e-05 -0.06106565 -0.065564044
000080 75 e2 4a bd 94 6f 24 3d 1c 29 39 3d 08 c0 16 3d
       -0.049532373 0.04014547 0.04520522 0.03680423
000090 6a e3 d8 b9 0c 5b 44 b9 ce 41 16 3a 7d 24 eb ae
       -0.00041368167 -0.00018725934 0.00057318516 -1.06930444e-10
0000a0 3e 5e a4 2f 97 06 1f 2f 96 4f df b7 5b 9e 5f 38
       2.989839e-10 1.4463307e-10 -2.6620732e-05 5.3314823e-05
0000b0 13 4c 09 38 c9 37 ce 2d 3b 38 57 ae 16 36 37 ae
       3.2734195e-05 2.3444262e-11 -4.8935283e-11 -4.165742e-11
0000c0 4f f1 85 bd fc 27 8d bd f0 bf 60 bd 05 69 87 bd
       -0.065401666 -0.06892392 -0.054870546 -0.06611828
0000d0 3e 91 87 bd 09 ad 53 bd cc 99 03 33 cc 3e 82 b3
       -0.066194996 -0.05167869 3.064069e-08 -6.0650194e-08
0000e0 8f 2a 91 b3 cb 67 b6 2f 92 f5 5d af f7 ab 0e b0
       -6.75983e-08 3.3179356e-10 -2.0187077e-10 -5.1903676e-10
0000f0 2a 46 ec 36 fa c1 60 b7 9e ab 52 b7 cb aa 9b bd
       7.0415163e-06 -1.3396604e-05 -1.2556933e-05 -0.076009355
000100 58 b4 97 bd 4c d9 70 bd b6 a4 05 ac 81 4a 05 2c
       -0.07407445 -0.05880098 -1.899187e-12 1.8941795e-12
000110 39 82 0d 2c c9 9d 2d a7 cd f9 0c 28 01 6c c3 27
       2.0109593e-12 -2.4094108e-15 7.825728e-15 5.424047e-15
000120 98 6a 1d 3a eb e2 27 39 c9 71 20 b9 97 48 4e b6
       0.00060049584 0.00016010895 -0.00015301177 -3.0738645e-06
000130 c2 72 9f b5 8e 0e ab 36 7d d1 93 bd 40 2e 93 bd
       -1.1879822e-06 5.0978915e-06 -0.07217691 -0.07186556
000140 85 a4 5e bd
       -0.054356117

positionModel.wpmixerCore.resolutionBranch.0.mixer1.tMixer.layers.0.bias f4 [27]
000000 eb 06 cb 3a e1 a7 e2 a9 b5 8b c9 ba 18 f5 31 b3
       0.0015489733 -1.00655385e-13 -0.0015376719 -4.1433935e-08
000010 44 ac 7c b6 75 95 82 ba 3f c5 83 ba 30 73 e7 b1
       -3.7651198e-06 -0.0009962755 -0.0010053291 -6.73608e-09
000020 79 8c 88 b9 c3 95 07 36 41 cb 84 ba 63 72 90 bb
       -0.00026044602 2.020374e-06 -0.0010131375 -0.004408167
000030 16 2f df 3a 22 a2 b9 ae 3f e9 75 b7 f6 1d 54 ae
       0.0017027583 -8.4416266e-11 -1.4657445e-05 -4.822983e-11
000040 5c 8a 6a 3a 38 24 0d b9 bf fa 66 b4 e9 39 03 b1
       0.0008947009 -0.000134603 -2.151164e-07 -1.9095927e-09
000050 91 1d 82 36 f9 71 cf 3a 96 c0 e0 2b 6f 71 c6 26
       3.877744e-06 0.0015826813 1.5969611e-12 1.3769756e-15
000060 30 e8 77 ba c2 f7 f3 35 a4 94 06 3b
       -0.0009456901 1.8177018e-06 0.0020535374

positionModel.wpmixerCore.resolutionBranch.0.mixer1.tMixer.layers.3.weight f4 [3, 27]
000000 d5 e6 cb 39 0e df f5 a8 18 44 2c bd 0d 79 6f b2
       0.0003889116 -2.7297199e-14 -0.042057127 -1.3939155e-08
000010 1d d3 16 36 36 c2 5f bd f1 71 2e ba 8d 11 18 31
       2.2474626e-06 -0.054628573 -0.0006654552 2.2128888e-09
000020 08 10 3b bb 58 54 8a 36 d4 6b 4b 3d f1 1e 02 bd
       -0.002854349 4.1225394e-06 0.04966338 -0.03176779
000030 87 09 61 39 e3 1a 89 2e eb f7 e0 b7 29 c3 03 ad
       0.00021461221 6.234815e-11 -2.6818327e-05 -7.489822e-12
000040 23 0d 5a 3d c0 e2 52 3d 4c 5e 3c b4 fd 8b 0d b1
       0.053235184 0.051485777 -1.754317e-07 -2.0597775e-09
000050 42 5d 93 36 f5 c1 77 3d 3e ad 95 ac 26 c9 b8 25
       4.391798e-06 0.060487706 -4.2540685e-12 3.2055215e-16
000060 2e f7 bc 3a c6 71 1d b7 8d cc 64 3d 26 2a 35 bb
       0.0014416927 -9.384419e-06 0.055859137 -0.002764353
000070 f3 3b ca 29 de 29 7f 3d bc 57 f7 34 4f 04 13 36
       8.9810016e-14 0.062295787 4.607117e-07 2.1907215e-06
000080 e2 03 9c 3d 65 9c 2b bb 80 ee 39 32 c5 4e ac 3b
       0.07617928 -0.0026185748 1.0822646e-08 0.0052584135
000090 82 ef 70 b6 7d da 8a bd cc 7a 3b 3d bf dd b3 ba
       -3.5902199e-06 -0.067799546 0.045771405 -0.0013722702
0000a0 d8 49 34 ae 6e 51 ca 36 f5 05 e0 2d 37 b8 9b bd
       -4.0992848e-11 6.029549e-06 2.5468497e-11 -0.076034956
0000b0 b1 e5 98 bd e3 77 53 34 be 9a 09 31 90 24 c6 b6
       -0.07465685 1.9694521e-07 2.0024085e-09 -5.9051163e-06
0000c0 9f fe ab bd 96 21 c4 2b cd e3 b4 26 ab 57 27 b9
       -0.083981745 1.393596e-12 1.2551755e-15 -0.0001595902
0000d0 99 fb 1d 35 fb 0a a5 bd dd 5a 24 3b d4 1d 9e aa
       5.885318e-07 -0.08058735 0.0025078573 -2.8087135e-13
0000e0 65 78 15 bd 61 bf 67 b5 de 32 0c b7 09 c4 37 bd
       -0.03649177 -8.63327e-07 -8.356494e-06 -0.044864688
0000f0 6d 1e a5 3b ea 3f 23 b2 da 72 8e bb bf ef 69 37
       0.0050390274 -9.502381e-09 -0.0043471875 1.39437025e-05
000100 28 77 23 3d 35 8e f0 bc e3 d7 97 3a 31 6d 2c af
       0.039908558 -0.029364685 0.0011584725 -1.5682101e-10
000110 9e d7 14 b8 24 49 f9 2d 1c ef 37 3d 5d b4 2d 3d
       -3.548676e-05 2.8340504e-11 0.044905767 0.042408336
000120 de ce fb 33 f0 63 2e 30 8c 8b d7 36 5f 74 50 3d
       1.1725727e-07 6.344285e-10 6.4237447e-06 0.05089223
000130 19 4a ad 2a ff 8c 8c a7 aa 07 ad b9 23 14 09 b6
       3.078239e-13 -3.9010674e-15 -0.00033002842 -2.0426312e-06
000140 35 62 3a 3d
       0.045503814

positionModel.wpmixerCore.resolutionBranch.0.mixer1.tMixer.layers.3.bias f4 [3]
000000 36 d5 57 b8 2d 9e 21 ba b7 b0 d8 b8
       -5.1458563e-05 -0.00061652326 -0.00010332598

positionModel.wpmixerCore.resolutionBranch.0.mixer1.norm1.weight f4 [18]
000000 af 2c 9a 3d dd 1f 8d 3d be e5 ab 3d 4c c3 74 3d
       0.07528054 0.06890843 0.08393429 0.059756562
000010 81 40 a2 3d a1 b2 89 3d da 0b b1 3d b8 62 88 3d
       0.079224594 0.06723524 0.08644839 0.06659454
000020 b6 8c 78 3d 1a 31 91 3d 19 73 93 3d cd bf 93 3d
       0.060681067 0.070894435 0.071996875 0.072143175
000030 d4 3f 85 3d 49 4d 94 3d 1e 73 97 3d ea c3 80 3d
       0.06506315 0.072413035 0.07395004 0.06287368
000040 1f 7a 70 3d 84 5b 89 3d
       0.058710214 0.06706908

positionModel.wpmixerCore.resolutionBranch.0.mixer1.norm1.bias f4 [18]
000000 ca ee 00 bb b0 5f dd b8 c8 85 ba b8 1b 61 2c 3b
       -0.001967358 -0.000105559244 -8.89409e-05 0.0026302997
000010 ba c4 37 ba 85 4d b4 3a 17 1c 85 3b f4 5b 99 b9
       -0.00070102105 0.0013756013 0.0040621865 -0.00029250944
000020 1b 2b 9d ba e8 11 8c b9 70 3c 8a bb bd 48 03 bb
       -0.0011990996 -0.00026716222 -0.0042186305 -0.002003237
000030 9e 79 d4 3a 30 28 b0 39 44 7c 8e bb bf 46 d7 3a
       0.0016210561 0.00033599278 -0.0043483097 0.0016424282
000040 9c b5 d8 bb 73 32 39 39
       -0.0066134464 0.00017661769

positionModel.wpmixerCore.resolutionBranch.0.mixer1.norm1.running_mean f4 [18]
000000 79 80 d9 b8 a5 26 41 b9 f3 12 e3 b8 7b 5b 46 b9
       -0.00010371296 -0.0001842031 -0.00010827733 -0.0001891683
000010 42 d7 c8 b8 c5 3b 46 b9 ba a2 18 b9 9d 6a 5e b9
       -9.576838e-05 -0.00018905017 -0.0001455647 -0.00021211286
000020 b7 35 2d b9 e8 af 47 b9 57 6b c0 b8 dc 2b 58 b9
       -0.00016518576 -0.00019043649 -9.175267e-05 -0.00020615704
000030 8a ff 40 b9 ec 11 5f b9 24 db d1 b8 93 88 37 b9
       -0.00018405743 -0.00021273614 -0.00010006715 -0.00017503118
000040 fb c9 33 b9 ce eb 2a b9
       -0.00017146014 -0.00016300307

positionModel.wpmixerCore.resolutionBranch.0.mixer1.norm1.running_var f4 [18]
000000 55 24 d5 38 98 57 4e 38 5c 00 fe 38 da f4 3b 38
       0.00010163399 4.9195805e-05 0.00012111731 4.481231e-05
000010 3f 3f e8 38 d0 63 57 38 fa 6f e9 38 2f 12 44 38
       0.000110744026 5.1352952e-05 0.00011131163 4.6746976e-05
000020 a7 05 3d 38 9a 9f 71 38 24 3f 4e 38 af f7 69 38
       4.5066376e-05 5.7607518e-05 4.917303e-05 5.5782202e-05
000030 64 7d 63 38 e7 3d 7f 38 5e 80 7b 38 54 7e 38 38
       5.4237797e-05 6.085439e-05 5.9962615e-05 4.398667e-05
000040 07 e0 5f 38 15 6f 50 38
       5.3375985e-05 4.9694518e-05

positionModel.wpmixerCore.resolutionBranch.0.mixer1.norm2.weight f4 [18]
000000 ee c7 49 3d b3 a8 06 3d 3b d4 3c 3d 83 ae ff 3c
       0.049262933 0.032875728 0.046100836 0.031211143
000010 61 a1 26 3d 76 cd 13 3d 50 d2 44 3d e7 61 0c 3d
       0.040681247 0.036084615 0.048052132 0.034273054
000020 32 45 0b 3d b7 39 11 3d ac 4a 0b 3d 96 d8 11 3d
       0.034001537 0.03545543 0.03400676 0.035606943
000030 70 f1 11 3d dc a8 15 3d 29 cf 15 3d 99 09 02 3d
       0.035630643 0.03653799 0.036574516 0.031747434
000040 f2 e3 06 3d 4c bd 06 3d
       0.03293223 0.03289537

positionModel.wpmixerCore.resolutionBranch.0.mixer1.norm2.bias f4 [18]
000000 5d dc a5 b4 59 6b 73 b3 c5 01 c3 b1 40 c2 81 33
       -3.089398e-07 -5.667548e-08 -5.675448e-09 6.0423645e-08
000010 62 ff 56 34 a0 60 7f b2 ec 7b b2 b2 c5 9e c0 32
       2.0023211e-07 -1.48649235e-08 -2.077828e-08 2.2423942e-08
000020 09 e5 b0 33 43 96 b3 b3 ae 24 a9 b1 0d 57 39 b3
       8.2373e-08 -8.3626695e-08 -4.9227173e-09 -4.315284e-08
000030 d8 ce 7c b3 a6 17 ac b3 93 4d 31 b4 dd 44 94 32
       -5.8861445e-08 -8.013676e-08 -1.6512631e-07 1.7260783e-08
000040 86 de 12 34 85 4b ac b2
       1.3678263e-07 -2.0057778e-08

positionModel.wpmixerCore.resolutionBranch.0.mixer1.norm2.running_mean f4 [18]
000000 88 54 20 b9 72 2e 34 b9 4f 9a 30 b9 d7 a3 38 b9
       -0.0001529028 -0.0001718344 -0.00016842152 -0.00017608643
000010 a5 13 2c b9 b1 37 35 b9 d7 a1 4d b9 fe 20 31 b9
       -0.00016410516 -0.00017282252 -0.00019610614 -0.00016892326
000020 a7 08 3d b9 41 3c 2c b9 e0 fd 17 b9 a6 d8 2a b9
       -0.00018027668 -0.00016425645 -0.00014495058 -0.00016293171
000030 cc 76 40 b9 2b 4b 39 b9 62 f7 1e b9 60 74 3b b9
       -0.00018354802 -0.00017670977 -0.00015160211 -0.00017877063
000040 1c 3c 07 b9 a1 a4 37 b9
       -0.00012896996 -0.00017513569

positionModel.wpmixerCore.resolutionBranch.0.mixer1.norm2.running_var f4 [18]
000000 a3 7b cd 36 f2 f5 eb 36 8a d6 09 37 60 a9 b3 36
       6.1238693e-06 7.0321776e-06 8.215788e-06 5.3543336e-06
000010 c0 69 12 37 87 52 de 36 98 f4 19 37 0f c5 de 36
       8.7269e-06 6.625723e-06 9.17646e-06 6.639056e-06
000020 0c 10 9c 36 ce ff f9 36 e3 c8 c3 36 96 dc 03 37
       4.6510304e-06 7.450558e-06 5.834839e-06 7.859568e-06
000030 58 bb ba 36 2f e2 02 37 3a 68 ed 36 f3 d5 c6 36
       5.5650416e-06 7.801266e-06 7.075284e-06 5.925767e-06
000040 fc ae 9a 36 70 ff e5 36
       4.6099285e-06 6.8544687e-06

positionModel.wpmixerCore.resolutionBranch.0.mixer1.embeddingMixer.0.weight f4 [128, 16]
000000 48 00 00 00 24 00 00 00 46 00 00 80 35 00 00 00
       1.01e-43 5e-44 -9.8e-44 7.4e-44
000010 00 00 00 00 4e 00 00 80 4b 00 00 00 47 00 00 80
       0.0 -1.1e-43 1.05e-43 -1e-43
000020 48 00 00 00 51 00 00 00 10 00 00 00 06 00 00 00
       1.01e-43 1.14e-43 2.2e-44 8e-45
000030 47 00 00 00 32 00 00 80 50 00 00 00 48 00 00 80
       1e-43 -7e-44 1.12e-43 -1.01e-43
000040 3a 00 00 80 10 00 00 00 4a 00 00 00 3b 00 00 00
       -8.1e-44 2.2e-44 1.04e-43 8.3e-44
000050 0e 00 00 80 34 00 00 00 28 00 00 00 4d 00 00 00
       -2e-44 7.3e-44 5.6e-44 1.08e-43
000060 1a 00 00 80 38 00 00 80 0f 00 00 80 0d 00 00 00
       -3.6e-44 -7.8e-44 -2.1e-44 1.8e-44
000070 13 00 00 00 48 00 00 80 47 00 00 80 37 00 00 80
       2.7e-44 -1.01e-43 -1e-43 -7.7e-44
000080 48 00 00 00 2f 00 00 00 4b 00 00 80 72 00 00 80
       1.01e-43 6.6e-44 -1.05e-43 -1.6e-43
000090 a2 00 00 80 4a 00 00 00 46 00 00 00 4a 00 00 80
       -2.27e-43 1.04e-43 9.8e-44 -1.04e-43
0000a0 26 00 00 00 1f 00 00 00 22 00 00 80 4e 00 00 00
       5.3e-44 4.3e-44 -4.8e-44 1.1e-43
0000b0 20 00 00 00 48 00 00 00 45 00 00 00 46 00 00 80
       4.5e-44 1.01e-43 9.7e-44 -9.8e-44
0000c0 4d 00 00 80 57 00 00 80 4c 00 00 00 01 00 00 80
       -1.08e-43 -1.22e-43 1.06e-43 -1e-45
0000d0 2b 00 00 80 01 00 00 00 44 00 00 00 05 00 00 80
       -6e-44 1e-45 9.5e-44 -7e-45
0000e0 00 00 00 00 2c 00 00 80 24 00 00 80 16 00 00 00
       0.0 -6.2e-44 -5e-44 3.1e-44
0000f0 04 00 00 00 20 00 00 80 0a 00 00 00 52 00 00 00
       6e-45 -4.5e-44 1.4e-44 1.15e-43
000100 4e 00 00 80 2a 00 00 00 47 00 00 80 1f 00 00 80
       -1.1e-43 5.9e-44 -1e-43 -4.3e-44
000110 3f 00 00 80 49 00 00 00 33 00 00 80 55 00 00 80
       -8.8e-44 1.02e-43 -7.1e-44 -1.19e-43
000120 17 00 00 80 00 00 00 00 5b 00 00 00 35 00 00 80
       -3.2e-44 0.0 1.28e-43 -7.4e-44
000130 0b 00 00 00 40 00 00 80 4a 00 00 00 49 00 00 80
       1.5e-44 -9e-44 1.04e-43 -1.02e-43
000140 48 00 00 00 11 00 00 80 53 00 00 00 4a 00 00 80
       1.01e-43 -2.4e-44 1.16e-43 -1.04e-43
000150 10 00 00 00 4f 00 00 80 4a 00 00 80 48 00 00 00
       2.2e-44 -1.11e-43 -1.04e-43 1.01e-43
000160 0d 00 00 80 3e 00 00 80 5a 00 00 00 0a 00 00 80
       -1.8e-44 -8.7e-44 1.26e-43 -1.4e-44
000170 21 00 00 00 10 00 00 00 1b 00 00 80 4d 00 00 00
       4.6e-44 2.2e-44 -3.8e-44 1.08e-43
000180 4b 00 00 80 4b 00 00 80 47 00 00 80 36 00 00 80
       -1.05e-43 -1.05e-43 -1e-43 -7.6e-44
000190 0a 00 00 80 49 00 00 00 39 00 00 00 50 00 00 00
       -1.4e-44 1.02e-43 8e-44 1.12e-43
0001a0 0c 00 00 80 09 00 00 80 2b 00 00 00 53 00 00 80
       -1.7e-44 -1.3e-44 6e-44 -1.16e-43
0001b0 47 00 00 00 26 00 00 80 42 00 00 80 53 00 00 80
       1e-43 -5.3e-44 -9.2e-44 -1.16e-43
0001c0 46 00 00 00 18 00 00 80 51 00 00 80 5f 00 00 00
       9.8e-44 -3.4e-44 -1.14e-43 1.33e-43
0001d0 4e 00 00 00 4d 00 00 00 21 00 00 00 4c 00 00 00
       1.1e-43 1.08e-43 4.6e-44 1.06e-43
0001e0 4c 00 00 00 49 00 00 80 4d 00 00 00 54 00 00 00
       1.06e-43 -1.02e-43 1.08e-43 1.18e-43
0001f0 56 00 00 80 50 00 00 00 24 00 00 80 57 00 00 00
       -1.2e-43 1.12e-43 -5e-44 1.22e-43
000200 46 00 00 00 2a 00 00 00 53 00 00 00 20 00 00 80
       9.8e-44 5.9e-44 1.16e-43 -4.5e-44
000210 4f 00 00 80 56 00 00 00 4d 00 00 80 49 00 00 00
       -1.11e-43 1.2e-43 -1.08e-43 1.02e-43
000220 48 00 00 00 49 00 00 00 4e 00 00 80 45 00 00 00
       1.01e-43 1.02e-43 -1.1e-43 9.7e-44
000230 4c 00 00 00 4e 00 00 80 4c 00 00 00 46 00 00 00
       1.06e-43 -1.1e-43 1.06e-43 9.8e-44
000240 4e 00 00 00 3b 00 00 80 46 00 00 00 36 00 00 80
       1.1e-43 -8.3e-44 9.8e-44 -7.6e-44
000250 34 00 00 80 48 00 00 00 4e 00 00 00 53 00 00 00
       -7.3e-44 1.01e-43 1.1e-43 1.16e-43
000260 43 00 00 00 05 00 00 00 17 00 00 00 1c 00 00 80
       9.4e-44 7e-45 3.2e-44 -3.9e-44
000270 40 00 00 00 15 00 00 80 05 00 00 80 53 00 00 80
       9e-44 -3e-44 -7e-45 -1.16e-43
000280 4c 00 00 00 1a 00 00 80 55 00 00 00 0f 00 00 00
       1.06e-43 -3.6e-44 1.19e-43 2.1e-44
000290 4f 00 00 00 46 00 00 00 1d 00 00 00 6b 00 00 00
       1.11e-43 9.8e-44 4e-44 1.5e-43
0002a0 21 00 00 00 22 00 00 00 16 00 00 80 09 00 00 00
       4.6e-44 4.8e-44 -3.1e-44 1.3e-44
0002b0 31 00 00 00 6d 00 00 00 3b 00 00 80 48 00 00 80
       6.9e-44 1.53e-43 -8.3e-44 -1.01e-43
0002c0 48 00 00 80 2a 00 00 00 51 00 00 00 2d 00 00 80
       -1.01e-43 5.9e-44 1.14e-43 -6.3e-44
0002d0 49 00 00 00 4f 00 00 80 26 00 00 80 47 00 00 00
       1.02e-43 -1.11e-43 -5.3e-44 1e-43
0002e0 32 00 00 00 33 00 00 00 50 00 00 80 4d 00 00 00
       7e-44 7.1e-44 -1.12e-43 1.08e-43
0002f0 41 00 00 80 63 00 00 00 19 00 00 80 47 00 00 80
       -9.1e-44 1.39e-43 -3.5e-44 -1e-43
000300 03 00 00 80 33 00 00 00 4d 00 00 00 28 00 00 80
       -4e-45 7.1e-44 1.08e-43 -5.6e-44
000310 33 00 00 80 4d 00 00 00 29 00 00 80 48 00 00 80
       -7.1e-44 1.08e-43 -5.7e-44 -1.01e-43
000320 43 00 00 80 47 00 00 80 36 00 00 80 48 00 00 80
       -9.4e-44 -1e-43 -7.6e-44 -1.01e-43
000330 1c 00 00 80 1f 00 00 00 19 00 00 00 55 00 00 00
       -3.9e-44 4.3e-44 3.5e-44 1.19e-43
000340 4e 00 00 00 34 00 00 80 52 00 00 80 01 00 00 00
       1.1e-43 -7.3e-44 -1.15e-43 1e-45
000350 3e 00 00 00 48 00 00 80 0e 00 00 80 4a 00 00 00
       8.7e-44 -1.01e-43 -2e-44 1.04e-43
000360 4f 00 00 80 57 00 00 80 41 00 00 00 c5 00 00 00
       -1.11e-43 -1.22e-43 9.1e-44 2.76e-43
000370 2c 00 00 00 23 00 00 80 20 00 00 00 18 00 00 80
       6.2e-44 -4.9e-44 4.5e-44 -3.4e-44
000380 66 00 00 00 56 0f 00 00 dc 00 00 80 18 01 00 00
       1.43e-43 5.501e-42 -3.08e-43 3.92e-43
000390 36 10 00 00 0c 00 00 00 4c 03 00 00 6a 02 00 80
       5.815e-42 1.7e-44 1.183e-42 -8.66e-43
0003a0 5b 01 00 80 3a 08 00 80 80 00 00 00 d5 02 00 00
       -4.86e-43 -2.951e-42 1.8e-43 1.016e-42
0003b0 a5 13 00 80 91 00 00 00 5b 04 00 00 b8 01 00 00
       -7.047e-42 2.03e-43 1.562e-42 6.17e-43
0003c0 47 00 00 80 3d 00 00 00 47 00 00 80 0a 00 00 00
       -1e-43 8.5e-44 -1e-43 1.4e-44
0003d0 40 00 00 00 47 00 00 80 51 00 00 00 59 00 00 00
       9e-44 -1e-43 1.14e-43 1.25e-43
0003e0 50 00 00 80 1b 00 00 00 56 00 00 00 48 00 00 00
       -1.12e-43 3.8e-44 1.2e-43 1.01e-43
0003f0 30 00 00 00 57 00 00 80 20 00 00 80 4a 00 00 80
       6.7e-44 -1.22e-43 -4.5e-44 -1.04e-43

positionModel.wpmixerCore.resolutionBranch.0.mixer1.embeddingMixer.0.bias f4 [128]
000000 81 00 00 80 2b 01 00 00 ec 01 00 00 dc 00 00 80
       -1.81e-43 4.19e-43 6.9e-43 -3.08e-43
000010 77 02 00 00 34 02 00 00 17 01 00 80 a6 00 00 00
       8.84e-43 7.9e-43 -3.91e-43 2.33e-43
000020 48 00 00 80 25 01 00 00 5e 04 00 00 29 01 00 80
       -1.01e-43 4.1e-43 1.567e-42 -4.16e-43
000030 50 00 00 00 54 02 00 80 0b 67 00 00 e6 00 00 00
       1.12e-43 -8.35e-43 3.6965e-41 3.22e-43
000040 a7 00 00 00 cb 00 00 00 04 00 00 00 15 00 00 00
       2.34e-43 2.84e-43 6e-45 3e-44
000050 af 9b c9 80 7f 01 00 00 4b 00 00 00 01 01 00 00
       -1.8514783e-38 5.37e-43 1.05e-43 3.6e-43
000060 4f 01 00 00 ea 0a 00 80 1f 00 00 80 b9 01 00 00
       4.7e-43 -3.915e-42 -4.3e-44 6.18e-43
000070 db 00 00 80 48 01 00 80 50 01 00 00 8f 01 00 80
       -3.07e-43 -4.6e-43 4.71e-43 -5.59e-43
000080 1e 00 00 00 e8 00 00 00 98 02 00 80 47 00 00 80
       4.2e-44 3.25e-43 -9.3e-43 -1e-43
000090 e3 00 00 80 ce 01 00 00 24 01 00 80 58 00 00 00
       -3.18e-43 6.47e-43 -4.09e-43 1.23e-43
0000a0 6c 00 00 00 90 00 00 80 20 00 00 00 8c 00 00 00
       1.51e-43 -2.02e-43 4.5e-44 1.96e-43
0000b0 91 01 00 80 82 03 00 00 b7 01 00 00 71 00 00 00
       -5.62e-43 1.258e-42 6.15e-43 1.58e-43
0000c0 e7 03 00 00 18 00 00 00 11 00 00 00 9a 00 00 00
       1.4e-42 3.4e-44 2.4e-44 2.16e-43
0000d0 6c 00 00 00 cc 00 00 00 fa 02 00 80 28 00 00 00
       1.51e-43 2.86e-43 -1.068e-42 5.6e-44
0000e0 0b 01 00 80 1f 00 00 80 ff 00 00 80 5e 02 00 80
       -3.74e-43 -4.3e-44 -3.57e-43 -8.49e-43
0000f0 b9 01 00 80 39 00 00 00 39 26 00 00 0f 02 00 00
       -6.18e-43 8e-44 1.3712e-41 7.38e-43
000100 28 00 00 80 b2 01 00 80 75 00 00 80 26 00 00 80
       -5.6e-44 -6.08e-43 -1.64e-43 -5.3e-44
000110 40 02 00 00 2e 00 00 80 a1 00 00 80 9b 00 00 80
       8.07e-43 -6.4e-44 -2.26e-43 -2.17e-43
000120 b9 00 00 80 f8 03 00 80 06 00 00 80 47 00 00 00
       -2.59e-43 -1.424e-42 -8e-45 1e-43
000130 a3 04 00 00 6d 01 00 00 6c 02 00 00 72 0a 00 80
       1.663e-42 5.11e-43 8.69e-43 -3.747e-42
000140 09 00 00 80 4c 01 00 00 6c 01 00 80 45 04 00 80
       -1.3e-44 4.65e-43 -5.1e-43 -1.532e-42
000150 86 00 00 80 0a 00 00 00 b6 00 00 00 30 01 00 00
       -1.88e-43 1.4e-44 2.55e-43 4.26e-43
000160 4f 00 00 00 9f 00 00 80 7b 02 00 80 5f 02 00 00
       1.11e-43 -2.23e-43 -8.9e-43 8.5e-43
000170 4b 01 00 00 41 00 00 00 b8 00 00 00 13 00 00 00
       4.64e-43 9.1e-44 2.58e-43 2.7e-44
000180 c7 01 00 00 87 03 00 80 ad 01 00 00 d1 00 00 00
       6.38e-43 -1.265e-42 6.01e-43 2.93e-43
000190 fb 01 00 00 ac 00 00 80 52 00 00 80 2d 02 00 80
       7.1e-43 -2.41e-43 -1.15e-43 -7.8e-43
0001a0 7f 00 00 80 41 01 00 80 90 01 00 80 bd 01 00 00
       -1.78e-43 -4.5e-43 -5.6e-43 6.24e-43
0001b0 a7 03 00 80 c2 00 00 00 b0 00 00 00 0c 01 00 00
       -1.31e-42 2.72e-43 2.47e-43 3.76e-43
0001c0 23 02 00 80 1b 01 00 00 91 00 00 80 9f 01 00 80
       -7.67e-43 3.97e-43 -2.03e-43 -5.82e-43
0001d0 5f 00 00 80 65 00 00 00 74 00 00 80 ee 00 00 00
       -1.33e-43 1.42e-43 -1.63e-43 3.34e-43
0001e0 12 00 00 00 fc 00 00 00 56 00 00 00 50 00 00 00
       2.5e-44 3.53e-43 1.2e-43 1.12e-43
0001f0 dc 01 00 00 93 01 00 00 5d 01 00 80 9a 02 00 00
       6.67e-43 5.65e-43 -4.89e-43 9.33e-43

positionModel.wpmixerCore.resolutionBranch.0.mixer1.embeddingMixer.3.weight f4 [16, 128]
000000 41 00 00 80 4c 00 00 80 59 00 00 00 57 00 00 00
       -9.1e-44 -1.06e-43 1.25e-43 1.22e-43
000010 3d 00 00 00 9c 00 00 00 55 00 00 00 00 01 00 80
       8.5e-44 2.19e-43 1.19e-43 -3.59e-43
000020 4a 00 00 80 50 00 00 80 24 00 00 00 48 00 00 80
       -1.04e-43 -1.12e-43 5e-44 -1.01e-43
000030 4c 00 00 80 4b 00 00 00 5d 00 00 00 56 00 00 00
       -1.06e-43 1.05e-43 1.3e-43 1.2e-43
000040 46 00 00 80 49 00 00 80 04 00 00 80 4f 00 00 00
       -9.8e-44 -1.02e-43 -6e-45 1.11e-43
000050 aa bc 19 80 49 00 00 00 52 00 00 80 51 00 00 80
       -2.363567e-39 1.02e-43 -1.15e-43 -1.14e-43
000060 24 00 00 00 54 00 00 00 49 00 00 00 56 00 00 00
       5e-44 1.18e-43 1.02e-43 1.2e-43
000070 4c 00 00 80 24 00 00 00 3b 00 00 80 49 00 00 00
       -1.06e-43 5e-44 -8.3e-44 1.02e-43
000080 58 00 00 00 57 00 00 80 59 00 00 00 4d 00 00 80
       1.23e-43 -1.22e-43 1.25e-43 -1.08e-43
000090 50 00 00 00 4f 00 00 00 4a 00 00 80 46 00 00 00
       1.12e-43 1.11e-43 -1.04e-43 9.8e-44
0000a0 49 00 00 80 4b 00 00 00 4a 00 00 00 4d 00 00 00
       -1.02e-43 1.05e-43 1.04e-43 1.08e-43
0000b0 52 00 00 00 4b 00 00 80 30 00 00 80 4a 00 00 80
       1.15e-43 -1.05e-43 -6.7e-44 -1.04e-43
0000c0 fc 00 00 00 4d 00 00 00 48 00 00 80 56 00 00 00
       3.53e-43 1.08e-43 -1.01e-43 1.2e-43
0000d0 4f 00 00 00 4d 00 00 00 4f 00 00 80 40 00 00 00
       1.11e-43 1.08e-43 -1.11e-43 9e-44
0000e0 4f 00 00 00 54 00 00 00 38 00 00 00 56 00 00 00
       1.11e-43 1.18e-43 7.8e-44 1.2e-43
0000f0 17 00 00 80 56 00 00 80 b4 01 00 00 4d 00 00 00
       -3.2e-44 -1.2e-43 6.11e-43 1.08e-43
000100 4c 00 00 00 53 00 00 00 52 00 00 00 51 00 00 00
       1.06e-43 1.16e-43 1.15e-43 1.14e-43
000110 49 00 00 00 52 00 00 80 58 00 00 80 4f 00 00 80
       1.02e-43 -1.15e-43 -1.23e-43 -1.11e-43
000120 4a 00 00 80 55 00 00 00 47 00 00 80 4b 00 00 80
       -1.04e-43 1.19e-43 -1e-43 -1.05e-43
000130 52 00 00 80 58 00 00 00 4b 00 00 80 80 00 00 00
       -1.15e-43 1.23e-43 -1.05e-43 1.8e-43
000140 4c 00 00 80 58 00 00 00 56 00 00 00 4f 01 00 00
       -1.06e-43 1.23e-43 1.2e-43 4.7e-43
000150 47 00 00 80 51 00 00 00 4d 00 00 80 54 00 00 00
       -1e-43 1.14e-43 -1.08e-43 1.18e-43
000160 50 00 00 00 47 00 00 80 4c 00 00 00 43 00 00 00
       1.12e-43 -1e-43 1.06e-43 9.4e-44
000170 49 00 00 00 49 00 00 00 51 00 00 00 46 00 00 00
       1.02e-43 1.02e-43 1.14e-43 9.8e-44
000180 52 00 00 00 4d 00 00 80 45 00 00 80 30 00 00 00
       1.15e-43 -1.08e-43 -9.7e-44 6.7e-44
000190 53 00 00 00 47 00 00 00 46 00 00 00 4f 00 00 80
       1.16e-43 1e-43 9.8e-44 -1.11e-43
0001a0 4e 00 00 80 46 00 00 00 4c 00 00 00 4c 00 00 80
       -1.1e-43 9.8e-44 1.06e-43 -1.06e-43
0001b0 3f 00 00 80 47 00 00 80 51 00 00 80 48 00 00 80
       -8.8e-44 -1e-43 -1.14e-43 -1.01e-43
0001c0 0e 00 00 80 47 00 00 00 4e 00 00 80 35 00 00 80
       -2e-44 1e-43 -1.1e-43 -7.4e-44
0001d0 4a 00 00 80 4e 00 00 80 4c 00 00 80 3a 00 00 00
       -1.04e-43 -1.1e-43 -1.06e-43 8.1e-44
0001e0 52 00 00 80 53 00 00 80 4f 00 00 00 4f 00 00 00
       -1.15e-43 -1.16e-43 1.11e-43 1.11e-43
0001f0 4e 00 00 80 55 00 00 00 50 00 00 00 49 00 00 80
       -1.1e-43 1.19e-43 1.12e-43 -1.02e-43
000200 63 00 00 80 3a 00 00 80 4d 00 00 80 ec 00 00 00
       -1.39e-43 -8.1e-44 -1.08e-43 3.31e-43
000210 0e 02 00 00 ca 00 00 00 2b 01 00 00 0b 00 00 80
       7.37e-43 2.83e-43 4.19e-43 -1.5e-44
000220 3e 00 00 00 36 01 00 00 58 00 00 80 0b 00 00 00
       8.7e-44 4.34e-43 -1.23e-43 1.5e-44
000230 0e 00 00 80 0c 01 00 00 04 02 00 00 19 00 00 80
       -2e-44 3.76e-43 7.23e-43 -3.5e-44
000240 23 00 00 00 34 00 00 80 43 01 00 00 5a 00 00 00
       4.9e-44 -7.3e-44 4.53e-43 1.26e-43
000250 9f 82 0a 00 1d 00 00 00 16 00 00 80 54 00 00 00
       9.65213e-40 4e-44 -3.1e-44 1.18e-43
000260 19 00 00 80 76 07 00 00 21 00 00 80 6a 00 00 00
       -3.5e-44 2.676e-42 -4.6e-44 1.49e-43
000270 35 01 00 80 00 01 00 00 58 00 00 00 5a 00 00 80
       -4.33e-43 3.59e-43 1.23e-43 -1.26e-43
000280 32 00 00 00 1a 02 00 00 12 00 00 80 42 00 00 80
       7e-44 7.54e-43 -2.5e-44 -9.2e-44
000290 3c 01 00 80 24 00 00 80 1a 00 00 80 6f 00 00 80
       -4.43e-43 -5e-44 -3.6e-44 -1.56e-43
0002a0 3c 00 00 00 1d 00 00 80 c4 00 00 00 ec 00 00 80
       8.4e-44 -4e-44 2.75e-43 -3.31e-43
0002b0 81 00 00 80 cd 00 00 00 75 01 00 00 df 00 00 80
       -1.81e-43 2.87e-43 5.23e-43 -3.12e-43
0002c0 cb 03 00 80 2f 00 00 00 81 00 00 80 30 00 00 00
       -1.36e-42 6.6e-44 -1.81e-43 6.7e-44
0002d0 72 00 00 00 84 00 00 80 3d 01 00 00 2e 00 00 00
       1.6e-43 -1.85e-43 4.44e-43 6.4e-44
0002e0 b2 00 00 80 50 00 00 00 89 00 00 00 68 03 00 80
       -2.5e-43 1.12e-43 1.92e-43 -1.222e-42
0002f0 fc 00 00 80 54 00 00 80 d5 35 00 80 96 00 00 00
       -3.53e-43 -1.18e-43 -1.9311e-41 2.1e-43
000300 2c 00 00 00 12 01 00 80 25 00 00 00 1e 02 00 00
       6.2e-44 -3.84e-43 5.2e-44 7.6e-43
000310 7e 00 00 80 0c 00 00 80 69 00 00 80 51 00 00 00
       -1.77e-43 -1.7e-44 -1.47e-43 1.14e-43
000320 4e 00 00 80 49 00 00 80 25 00 00 00 4f 00 00 80
       -1.1e-43 -1.02e-43 5.2e-44 -1.11e-43
000330 60 00 00 80 72 00 00 00 16 00 00 00 c3 02 00 80
       -1.35e-43 1.6e-43 3.1e-44 -9.91e-43
000340 a1 00 00 00 31 00 00 80 21 01 00 80 66 0d 00 00
       2.26e-43 -6.9e-44 -4.05e-43 4.806e-42
000350 63 00 00 80 1a 00 00 00 12 00 00 80 bc 00 00 80
       -1.39e-43 3.6e-44 -2.5e-44 -2.63e-43
000360 36 00 00 00 ee 00 00 80 24 00 00 00 6e 03 00 80
       7.6e-44 -3.34e-43 5e-44 -1.23e-42
000370 9c 00 00 80 7b 00 00 80 1d 00 00 00 c2 00 00 80
       -2.19e-43 -1.72e-43 4e-44 -2.72e-43
000380 ac 01 00 80 79 01 00 80 c1 00 00 00 3e 01 00 80
       -6e-43 -5.28e-43 2.7e-43 -4.46e-43
000390 26 00 00 80 5e 00 00 00 2e 00 00 00 7a 00 00 00
       -5.3e-44 1.32e-43 6.4e-44 1.71e-43
0003a0 58 00 00 80 4c 01 00 80 e7 00 00 80 9d 00 00 00
       -1.23e-43 -4.65e-43 -3.24e-43 2.2e-43
0003b0 a4 01 00 80 47 00 00 80 23 00 00 80 70 00 00 00
       -5.89e-43 -1e-43 -4.9e-44 1.57e-43
0003c0 eb 00 00 80 aa 00 00 00 b1 00 00 00 c9 00 00 00
       -3.3e-43 2.38e-43 2.48e-43 2.82e-43
0003d0 23 00 00 00 43 00 00 00 06 00 00 80 c4 00 00 00
       4.9e-44 9.4e-44 -8e-45 2.75e-43
0003e0 a0 00 00 00 10 02 00 00 0d 00 00 00 b7 01 00 00
       2.24e-43 7.4e-43 1.8e-44 6.15e-43
0003f0 2b 00 00 80 0c 00 00 80 ea 00 00 00 3f 01 00 00
       -6e-44 -1.7e-44 3.28e-43 4.47e-43

positionModel.wpmixerCore.resolutionBranch.0.mixer1.embeddingMixer.3.bias f4 [16]
000000 54 b1 28 38 bd 30 76 39 42 48 13 ba fd 79 8d b9
       4.021947e-05 0.00023478545 -0.0005618372 -0.00026984504
000010 e7 00 a1 39 7f 81 95 39 b2 95 c0 3b 10 b5 02 39
       0.00030708985 0.00028515977 0.00587722 0.00012465217
000020 c2 af 73 ba 78 00 51 bb 66 7d af ba e9 dc 9c ba
       -0.00092959043 -0.0031891149 -0.0013388812 -0.0011967692
000030 18 46 ae 3b 64 3e 02 3a 7c 11 5e 3b f3 49 51 39
       0.0053184144 0.00049684034 0.0033884933 0.00019959341

positionModel.wpmixerCore.resolutionBranch.0.mixer2.tMixer.layers.0.weight f4 [27, 3]
000000 47 00 00 00 46 00 00 00 46 00 00 00 46 00 00 80
       1e-43 9.8e-44 9.8e-44 -9.8e-44
000010 46 00 00 80 46 00 00 80 59 00 00 00 46 00 00 80
       -9.8e-44 -9.8e-44 1.25e-43 -9.8e-44
000020 46 00 00 80 46 00 00 00 46 00 00 00 46 00 00 80
       -9.8e-44 9.8e-44 9.8e-44 -9.8e-44
000030 46 00 00 00 46 00 00 00 47 00 00 00 46 00 00 80
       9.8e-44 9.8e-44 1e-43 -9.8e-44
000040 4b 00 00 00 46 00 00 80 47 00 00 80 46 00 00 80
       1.05e-43 -9.8e-44 -1e-43 -9.8e-44
000050 46 00 00 80 43 00 00 80 48 00 00 00 46 00 00 00
       -9.8e-44 -9.4e-44 1.01e-43 9.8e-44
000060 47 00 00 00 48 00 00 00 46 00 00 80 46 00 00 80
       1e-43 1.01e-43 -9.8e-44 -9.8e-44
000070 46 00 00 00 47 00 00 00 47 00 00 80 46 00 00 80
       9.8e-44 1e-43 -1e-43 -9.8e-44
000080 47 00 00 80 58 00 00 80 46 00 00 80 4d 00 00 80
       -1e-43 -1.23e-43 -9.8e-44 -1.08e-43
000090 4a 00 00 00 47 00 00 00 46 00 00 80 46 00 00 80
       1.04e-43 1e-43 -9.8e-44 -9.8e-44
0000a0 46 00 00 00 47 00 00 00 46 00 00 00 4d 00 00 80
       9.8e-44 1e-43 9.8e-44 -1.08e-43
0000b0 46 00 00 80 46 00 00 00 46 00 00 00 46 00 00 00
       -9.8e-44 9.8e-44 9.8e-44 9.8e-44
0000c0 46 00 00 00 4e 00 00 00 46 00 00 00 46 00 00 00
       9.8e-44 1.1e-43 9.8e-44 9.8e-44
0000d0 46 00 00 00 46 00 00 00 35 00 00 80 55 00 00 00
       9.8e-44 9.8e-44 -7.4e-44 1.19e-43
0000e0 46 00 00 80 47 00 00 80 47 00 00 00 48 00 00 00
       -9.8e-44 -1e-43 1e-43 1.01e-43
0000f0 48 00 00 00 47 00 00 00 47 00 00 80 46 00 00 00
       1.01e-43 1e-43 -1e-43 9.8e-44
000100 46 00 00 00 47 00 00 00 48 00 00 80 46 00 00 00
       9.8e-44 1e-43 -1.01e-43 9.8e-44
000110 46 00 00 00 47 00 00 80 46 00 00 00 46 00 00 00
       9.8e-44 -1e-43 9.8e-44 9.8e-44
000120 47 00 00 80 48 00 00 00 46 00 00 00 52 00 00 80
       -1e-43 1.01e-43 9.8e-44 -1.15e-43
000130 46 00 00 80 47 00 00 00 47 00 00 00 46 00 00 80
       -9.8e-44 1e-43 1e-43 -9.8e-44
000140 46 00 00 00
       9.8e-44

positionModel.wpmixerCore.resolutionBranch.0.mixer2.tMixer.layers.0.bias f4 [27]
000000 46 00 00 80 46 00 00 80 47 00 00 00 46 00 00 00
       -9.8e-44 -9.8e-44 1e-43 9.8e-44
000010 00 00 00 00 05 00 00 00 46 00 00 80 e2 ff 3b 04
       0.0 7e-45 -9.8e-44 2.209924e-36
000020 44 00 00 00 38 00 00 80 46 00 00 00 33 26 00 80
       9.5e-44 -7.8e-44 9.8e-44 -1.3703e-41
000030 48 00 00 00 46 00 00 80 46 00 00 80 4a 28 00 00
       1.01e-43 -9.8e-44 -9.8e-44 1.4453e-41
000040 4f 00 00 80 47 00 00 80 f4 c2 1c 91 4a 00 00 00
       -1.11e-43 -1e-43 -1.2366305e-28 1.04e-43
000050 46 00 00 80 46 00 00 00 46 00 00 80 46 00 00 00
       -9.8e-44 9.8e-44 -9.8e-44 9.8e-44
000060 46 00 00 80 47 00 00 80 47 00 00 80
       -9.8e-44 -1e-43 -1e-43

positionModel.wpmixerCore.resolutionBranch.0.mixer2.tMixer.layers.3.weight f4 [3, 27]
000000 46 00 00 00 46 00 00 00 47 00 00 80 46 00 00 80
       9.8e-44 9.8e-44 -1e-43 -9.8e-44
000010 4d 00 00 00 46 00 00 00 46 00 00 00 f6 53 f6 85
       1.08e-43 9.8e-44 9.8e-44 -2.3164571e-35
000020 46 00 00 80 46 00 00 00 46 00 00 80 79 9b 1b 00
       -9.8e-44 9.8e-44 -9.8e-44 2.535331e-39
000030 46 00 00 80 46 00 00 00 46 00 00 00 d7 e2 02 00
       -9.8e-44 9.8e-44 9.8e-44 2.65046e-40
000040 46 00 00 00 46 00 00 00 49 6d 8e 93 47 00 00 80
       9.8e-44 9.8e-44 -3.5953603e-27 -1e-43
000050 46 00 00 00 46 00 00 80 46 00 00 00 46 00 00 80
       9.8e-44 -9.8e-44 9.8e-44 -9.8e-44
000060 46 00 00 00 46 00 00 00 46 00 00 80 46 00 00 80
       9.8e-44 9.8e-44 -9.8e-44 -9.8e-44
000070 46 00 00 80 53 00 00 00 46 00 00 00 46 00 00 80
       -9.8e-44 1.16e-43 9.8e-44 -9.8e-44
000080 46 00 00 00 46 00 00 80 50 c6 06 02 47 00 00 00
       9.8e-44 -9.8e-44 9.901678e-38 1e-43
000090 46 00 00 80 46 00 00 00 ba 11 00 80 47 00 00 00
       -9.8e-44 9.8e-44 -6.359e-42 1e-43
0000a0 46 00 00 80 46 00 00 00 27 12 00 00 31 00 00 80
       -9.8e-44 9.8e-44 6.512e-42 -6.9e-44
0000b0 46 00 00 80 2d 8a 44 0f 48 00 00 00 47 00 00 00
       -9.8e-44 9.690158e-30 1.01e-43 1e-43
0000c0 48 00 00 00 46 00 00 80 46 00 00 00 46 00 00 80
       1.01e-43 -9.8e-44 9.8e-44 -9.8e-44
0000d0 46 00 00 80 46 00 00 80 46 00 00 80 47 00 00 80
       -9.8e-44 -9.8e-44 -9.8e-44 -1e-43
0000e0 47 00 00 80 46 00 00 00 46 00 00 00 46 00 00 00
       -1e-43 9.8e-44 9.8e-44 9.8e-44
0000f0 47 00 00 80 8d 8d 8f 80 47 00 00 80 46 00 00 00
       -1e-43 -1.3183255e-38 -1e-43 9.8e-44
000100 47 00 00 80 1a 74 00 80 48 00 00 00 48 00 00 80
       -1e-43 -4.165e-41 1.01e-43 -1.01e-43
000110 47 00 00 80 6f 0b 00 80 47 00 00 00 46 00 00 80
       -1e-43 -4.102e-42 1e-43 -9.8e-44
000120 2e 85 8d 0f 47 00 00 80 47 00 00 80 46 00 00 00
       1.3954972e-29 -1e-43 -1e-43 9.8e-44
000130 46 00 00 80 47 00 00 00 48 00 00 80 46 00 00 00
       -9.8e-44 1e-43 -1.01e-43 9.8e-44
000140 46 00 00 80
       -9.8e-44

positionModel.wpmixerCore.resolutionBranch.0.mixer2.tMixer.layers.3.bias f4 [3]
000000 20 e3 17 3c 11 30 46 3b 2d b3 54 bc
       0.009270459 0.0030241052 -0.012982172

positionModel.wpmixerCore.resolutionBranch.0.mixer2.norm1.weight f4 [18]
000000 46 00 00 80 46 00 00 00 46 00 00 80 46 00 00 80
       -9.8e-44 9.8e-44 -9.8e-44 -9.8e-44
000010 46 00 00 80 46 00 00 00 46 00 00 80 46 00 00 00
       -9.8e-44 9.8e-44 -9.8e-44 9.8e-44
000020 46 00 00 00 46 00 00 00 46 00 00 80 46 00 00 00
       9.8e-44 9.8e-44 -9.8e-44 9.8e-44
000030 46 00 00 00 46 00 00 00 46 00 00 00 46 00 00 80
       9.8e-44 9.8e-44 9.8e-44 -9.8e-44
000040 46 00 00 80 46 00 00 00
       -9.8e-44 9.8e-44

positionModel.wpmixerCore.resolutionBranch.0.mixer2.norm1.bias f4 [18]
000000 46 00 00 80 49 00 00 00 46 00 00 80 47 00 00 00
       -9.8e-44 1.02e-43 -9.8e-44 1e-43
000010 47 00 00 80 46 00 00 00 46 00 00 00 47 00 00 00
       -1e-43 9.8e-44 9.8e-44 1e-43
000020 47 00 00 80 47 00 00 00 47 00 00 80 47 00 00 80
       -1e-43 1e-43 -1e-43 -1e-43
000030 46 00 00 00 48 00 00 80 47 00 00 00 46 00 00 80
       9.8e-44 -1.01e-43 1e-43 -9.8e-44
000040 46 00 00 00 47 00 00 80
       9.8e-44 -1e-43

positionModel.wpmixerCore.resolutionBranch.0.mixer2.norm1.running_mean f4 [18]
000000 d7 54 b6 39 cf c0 b8 39 0f c6 b9 39 70 7e b8 39
       0.00034776956 0.00035238868 0.00035433515 0.00035189418
000010 7d 12 b4 39 5a 6c b7 39 85 70 b9 39 56 6b b8 39
       0.0003434605 0.00034985208 0.00035369783 0.00035175186
000020 b7 d0 b9 39 a1 45 b8 39 18 cd bc 39 39 77 b5 39
       0.00035441454 0.00035147092 0.0003601096 0.00034611838
000030 fa ef b8 39 35 c7 b6 39 48 bf b7 39 54 e1 b7 39
       0.0003527401 0.00034862166 0.00035046996 0.00035072363
000040 3c 38 bb 39 d8 fd b8 39
       0.00035709317 0.00035284343

positionModel.wpmixerCore.resolutionBranch.0.mixer2.norm1.running_var f4 [18]
000000 8f 51 76 3a a6 8e fe 39 5e ee 7a 3a 95 c5 b8 39
       0.00093963085 0.00048552937 0.00095722626 0.00035242425
000010 f3 4d 46 3a 5d 32 08 3a 57 6a 95 3a bf 93 00 3a
       0.0007564716 0.0005195493 0.001139949 0.00049048284
000020 e3 4f be 39 ba b1 12 3a 88 86 f9 39 22 c1 19 3a
       0.00036299144 0.00055959413 0.00047593215 0.0005865266
000030 34 fb f3 39 4f b2 1c 3a f6 69 13 3a 93 de cf 39
       0.00046535733 0.0005977498 0.00056233944 0.00039647947
000040 b2 30 b5 39 df 18 f9 39
       0.0003455929 0.0004751151

positionModel.wpmixerCore.resolutionBranch.0.mixer2.norm2.weight f4 [18]
000000 44 10 85 3a 44 49 03 3b a9 be db 3a 98 1c 9b b9
       0.0010151942 0.0020032683 0.0016765195 -0.00029585208
000010 6a 95 a7 39 a7 95 3d b8 ac 37 20 bb b5 d7 e0 3a
       0.00031964044 -4.5200486e-05 -0.0024447246 0.001715413
000020 b8 e4 e1 3a 00 2b 93 3a 7c 43 23 3b 16 63 12 3b
       0.0017234301 0.0011228025 0.002491205 0.0022336892
000030 38 b7 c3 3a d3 f1 90 3a e4 21 c7 3a 2f 91 2d 3a
       0.0014931923 0.0011058397 0.0015192595 0.00066210603
000040 e1 2f 7c bb e3 1b 6f 3a
       -0.0038480686 0.0009121282

positionModel.wpmixerCore.resolutionBranch.0.mixer2.norm2.bias f4 [18]
000000 40 ec 5e b3 bd 09 e8 31 af 27 86 b3 e8 38 2b 32
       -5.190327e-08 6.753196e-09 -6.24708e-08 9.966449e-09
000010 4f 57 8d 32 b8 57 b7 32 4e ba 36 b3 b6 b9 ff 31
       1.6454264e-08 2.1343894e-08 -4.254462e-08 7.4425897e-09
000020 55 90 74 33 88 8d 81 32 17 98 2f 33 d8 41 1c b3
       5.6941946e-08 1.5081937e-08 4.0883688e-08 -3.6381465e-08
000030 ca 8d 90 b3 c2 99 ae b3 9d d9 04 b4 f6 7e 4b 32
       -6.731314e-08 -8.130475e-08 -1.2372625e-07 1.1845023e-08
000040 d7 d7 d2 32 a1 82 76 b2
       2.454537e-08 -1.4348786e-08

positionModel.wpmixerCore.resolutionBranch.0.mixer2.norm2.running_mean f4 [18]
000000 eb 47 87 b9 26 78 97 b9 3f 6a 90 b9 dd 31 8d b9
       -0.0002580279 -0.00028890482 -0.0002754498 -0.00026930767
000010 d9 cb 86 b9 e0 40 99 b9 f6 9e 87 b9 42 da 8b b9
       -0.0002571035 -0.0002923077 -0.00025867642 -0.0002667476
000020 0a 04 78 b9 fe f4 92 b9 f6 45 83 b9 c2 00 8f b9
       -0.00023652628 -0.00028029823 -0.00025038392 -0.0002727565
000030 9e 1d 99 b9 31 c1 97 b9 3e 42 80 b9 0e c9 92 b9
       -0.000292045 -0.00028944903 -0.00024463417 -0.00027997087
000040 03 6b 81 b9 df 36 85 b9
       -0.00024684527 -0.0002540862

positionModel.wpmixerCore.resolutionBranch.0.mixer2.norm2.running_var f4 [18]
000000 e7 0b c2 38 ad bd c2 38 83 8b c2 38 2f 12 c3 38
       9.252858e-05 9.285971e-05 9.276627e-05 9.3017115e-05
000010 31 49 c2 38 d7 3a c2 38 71 b7 c2 38 b5 ea c2 38
       9.264274e-05 9.261601e-05 9.2848095e-05 9.2943585e-05
000020 11 1a c3 38 fb 48 c2 38 da 6b c2 38 ce 96 c2 38
       9.30318e-05 9.2642345e-05 9.27073e-05 9.2787304e-05
000030 70 f6 c2 38 f7 b3 c3 38 64 07 c3 38 1e 97 c3 38
       9.2965434e-05 9.331846e-05 9.299701e-05 9.326472e-05
000040 85 18 c2 38 3d 7f c2 38
       9.255208e-05 9.274341e-05
