checkpoints/BridgeModel_dec-True_sl48_pl1_dm16_bt32_wvsym5_tf5_df7_ptl10_stl5_sd42/checkpoint.pth (torch, 128503 bytes, 108 tensors)

corr_factor_weight f4 [18]
0	0x3f800000	1.0
1	0x3f800000	1.0
2	0x3f800000	1.0
3	0x3f800000	1.0
4	0x3f800000	1.0
5	0x3f800000	1.0
6	0x3f800000	1.0
7	0x3f800000	1.0
8	0x3f800000	1.0
9	0x3f800000	1.0
10	0x3f800000	1.0
11	0x3f800000	1.0
12	0x3f800000	1.0
13	0x3f800000	1.0
14	0x3f800000	1.0
15	0x3f800000	1.0
16	0x3f800000	1.0
17	0x3f800000	1.0

corr_factor_bias f4 [18]
0	0x00000000	0.0
1	0x00000000	0.0
2	0x00000000	0.0
3	0x00000000	0.0
4	0x00000000	0.0
5	0x00000000	0.0
6	0x00000000	0.0
7	0x00000000	0.0
8	0x00000000	0.0
9	0x00000000	0.0
10	0x00000000	0.0
11	0x00000000	0.0
12	0x00000000	0.0
13	0x00000000	0.0
14	0x00000000	0.0
15	0x00000000	0.0
16	0x00000000	0.0
17	0x00000000	0.0

position_scaler_mean f4 [18]
0	0xc1080d24	-8.503208
1	0x404e0636	3.219129
2	0xc0e1293f	-7.036285
3	0x3f2f264f	0.6841783
4	0xc0905d4f	-4.51139
5	0x401f5c54	2.4900103
6	0xbfc0e914	-1.507113
7	0x402e6bd5	2.7253315
8	0x3f821204	1.0161748
9	0x4038244e	2.8772159
10	0x401ff644	2.4994059
11	0x40284f52	2.6298413
12	0x40a071dd	5.0138993
13	0x405b040e	3.4221225
14	0x40d042d7	6.508159
15	0x3f8b3112	1.087435
16	0x41081dc1	8.507264
17	0x3fe18cc1	1.762108

position_scaler_std f4 [18]
0	0x3c09d996	0.008413693
1	0x409a34b7	4.818935
2	0x3c9cb2ae	0.01912817
3	0x40c3a343	6.1136794
4	0x3c3081f8	0.010773174
5	0x40afb1a0	5.4904327
6	0x3bcb0980	0.006196201
7	0x40a7e9e3	5.2473006
8	0x3c5889f4	0.013216484
9	0x408e5907	4.4483676
10	0x3c3afe51	0.011413173
11	0x408ebb9b	4.460401
12	0x3c89915d	0.016792947
13	0x40885ca2	4.2613077
14	0x3bf371f7	0.007429357
15	0x40bd0940	5.907379
16	0x3bbd1f42	0.0057715485
17	0x40aa0af0	5.313835

positionModel.wpmixerCore.Decomposition_model.dwt.h0 f4 [1, 1, 10]
0	0x3ca01002	0.019538883
1	0xbcacddc1	-0.021101834
2	0xbe338935	-0.17532809
3	0x3c880124	0.016602106
4	0x3f224c72	0.63397896
5	0x3f39313f	0.7234077
6	0x3e4c2ede	0.19939753
7	0xbd204b3c	-0.03913425
8	0x3cf1d2dc	0.02951949
9	0x3cdfe999	0.027333068

positionModel.wpmixerCore.Decomposition_model.dwt.h1 f4 [1, 1, 10]
0	0x3cdfe999	0.027333068
1	0xbcf1d2dc	-0.02951949
2	0xbd204b3c	-0.03913425
3	0xbe4c2ede	-0.19939753
4	0x3f39313f	0.7234077
5	0xbf224c72	-0.63397896
6	0x3c880124	0.016602106
7	0x3e338935	0.17532809
8	0xbcacddc1	-0.021101834
9	0xbca01002	-0.019538883

positionModel.wpmixerCore.Decomposition_model.idwt.g0 f4 [1, 1, 10]
0	0x3ca01002	0.019538883
1	0xbcacddc1	-0.021101834
2	0xbe338935	-0.17532809
3	0x3c880124	0.016602106
4	0x3f224c72	0.63397896
5	0x3f39313f	0.7234077
6	0x3e4c2ede	0.19939753
7	0xbd204b3c	-0.03913425
8	0x3cf1d2dc	0.02951949
9	0x3cdfe999	0.027333068

positionModel.wpmixerCore.Decomposition_model.idwt.g1 f4 [1, 1, 10]
0	0x3cdfe999	0.027333068
1	0xbcf1d2dc	-0.02951949
2	0xbd204b3c	-0.03913425
3	0xbe4c2ede	-0.19939753
4	0x3f39313f	0.7234077
5	0xbf224c72	-0.63397896
6	0x3c880124	0.016602106
7	0x3e338935	0.17532809
8	0xbcacddc1	-0.021101834
9	0xbca01002	-0.019538883

positionModel.wpmixerCore.resolutionBranch.0.patch_norm.weight f4 [18]
0	0x3daa3c4b	0.08312281
1	0x3d39ded4	0.04537852
2	0x3d237011	0.039901797
3	0x3d2daf5c	0.042403564
4	0x3d1831bf	0.037156817
5	0x3d38ebf0	0.045146883
6	0x3da7980f	0.081833
7	0x3d367ff9	0.044555638
8	0x3d1345f3	0.03595538
9	0x3d3e10c0	0.046402693
10	0x3d24c793	0.04022939
11	0x3d3d170c	0.046164557
12	0x3d063244	0.03276278
13	0x3d408d71	0.04700989
14	0x3d22423c	0.039613947
15	0x3d3477d8	0.044059604
16	0x3d1e3b05	0.038630504
17	0x3d34d239	0.044145796

positionModel.wpmixerCore.resolutionBranch.0.patch_norm.bias f4 [18]
0	0xbc249acb	-0.010046671
1	0x3b69ccb9	0.0035675003
2	0x3bdc92d9	0.006731373
3	0x3b46c409	0.0030329248
4	0x3aad0920	0.0013201572
5	0x3aaef662	0.0013348574
6	0xbc39005b	-0.011291589
7	0x3b28d72d	0.002576302
8	0x3b350b25	0.002762505
9	0x3b7503a3	0.00373862
10	0x3b8af254	0.0042403135
11	0x3ab792e3	0.0014005568
12	0x3b95744b	0.0045609823
13	0x3b60516a	0.0034228214
14	0xba2b1e1f	-0.0006527621
15	0x3b5038ee	0.0031772214
16	0x39e4d8a7	0.00043648967
17	0x3badd872	0.0053053433

positionModel.wpmixerCore.resolutionBranch.0.patch_norm.running_mean f4 [18]
0	0xbb2f51a0	-0.0026751533
1	0xbab87463	-0.0014072772
2	0xbad82460	-0.0016490333
3	0xbac3947c	-0.0014921571
4	0xb931a47e	-0.00016941314
5	0xbab8caf7	-0.0014098574
6	0x3ae59904	0.0017516916
7	0xbaaea38f	-0.0013323891
8	0x3ae74ae9	0.0017646226
9	0xbab80188	-0.0014038542
10	0xb970a384	-0.00022949098
11	0xbab299bc	-0.0013626139
12	0x3a8a3b1a	0.0010546178
13	0xbaba9028	-0.0014233636
14	0x3b1688ea	0.002296979
15	0xbab44b74	-0.0013755397
16	0x3a04fe7c	0.00050733215
17	0xbab50443	-0.0013810474

positionModel.wpmixerCore.resolutionBranch.0.patch_norm.running_var f4 [18]
0	0x38801244	6.106918e-05
1	0x3789a385	1.6407817e-05
2	0x37c00cfd	2.2894232e-05
3	0x377e9d2c	1.5176174e-05
4	0x379cb78d	1.8682122e-05
5	0x378abc17	1.6538468e-05
6	0x38a24042	7.736731e-05
7	0x3772cb89	1.4471713e-05
8	0x370fc83b	8.570084e-06
9	0x3788a586	1.6289541e-05
10	0x370f1a68	8.529612e-06
11	0x3788d0ac	1.6309634e-05
12	0x36cde40a	6.1360233e-06
13	0x3792655b	1.7451754e-05
14	0x3735b6f9	1.0831042e-05
15	0x37723b75	1.4438167e-05
16	0x37d4a4d5	2.5349125e-05
17	0x37814fb5	1.5415115e-05

positionModel.wpmixerCore.resolutionBranch.0.patch_embedding_layer.weight f4 [16, 10]
0	0x3a1b1dc8	0.00059172185
1	0x3bb4c42e	0.0055165505
2	0x3d2af121	0.041733865
3	0x3bdbb07c	0.006704388
4	0x3bc4474b	0.005989944
5	0x3d0c39ae	0.034234695
6	0xbc2c93fd	-0.01053333
7	0xbb9d9dc3	-0.0048100664
8	0x3bdbcd00	0.0067077875
9	0x3c86c9a2	0.016453568
10	0x3a19f260	0.00058726035
11	0x3c01b462	0.007916542
12	0x3d39dd8b	0.045377295
13	0x3c3d5115	0.011554976
14	0x3c5ab904	0.013349775
15	0x3d11fc9e	0.035641305
16	0xbc228a7d	-0.0099207135
17	0xbbbdb94e	-0.0057899123
18	0x3c07691e	0.008264808
19	0x3cb1af14	0.021689929
20	0xbad44d0e	-0.001619728
21	0x3b95e094	0.004573891
22	0x3d30907d	0.043106545
23	0x3be0246c	0.0068402793
24	0x3c1f0b99	0.009707355
25	0x3d204be7	0.039134886
26	0xbc55e4ae	-0.01305501
27	0xbc07e319	-0.00829389
28	0x3b5d54d3	0.0033772483
29	0x3c86716e	0.01641151
30	0x3980b143	0.00024546133
31	0x3be90ad8	0.0071118884
32	0x3d36a035	0.04458638
33	0x3bf5d7a7	0.0075025144
34	0x3c14217a	0.009041185
35	0x3d05163d	0.03249191
36	0xbc033bae	-0.008009834
37	0xbbbbfec6	-0.0057371585
38	0x3bef6cb4	0.0073066596
39	0x3ccd3273	0.02504847
40	0xbb1fa134	-0.002435756
41	0x3acd811e	0.0015678739
42	0x3d2cb1f6	0.042161904
43	0x3bb4300e	0.0054988926
44	0x3be4e999	0.006985855
45	0x3d0dce0f	0.03462034
46	0xbc28d55e	-0.010304777
47	0xbc1c36f8	-0.00953459
48	0x3bbd6be5	0.0057806843
49	0x3c91d798	0.017802998
50	0xb907e2a6	-0.00012959036
51	0x3c049292	0.008091586
52	0x3d32adca	0.04362277
53	0x3c25eaf9	0.010126823
54	0x3c1d2956	0.009592375
55	0x3cf1f461	0.029535474
56	0xbbcb51e3	-0.00620483
57	0xbb8e0ef8	-0.0043352805
58	0x3c0124c6	0.007882303
59	0x3cb79e92	0.02241448
60	0x3ab5aa0f	0.0013859886
61	0x3c09d107	0.008411652
62	0x3d1e833f	0.038699385
63	0x3baf0a3a	0.0053417953
64	0x3c099930	0.008398339
65	0x3cff221a	0.03114419
66	0xbbe4008d	-0.0069580735
67	0xbbb6dfdf	-0.0055808867
68	0x3bb10ae4	0.0054029096
69	0x3ca927aa	0.020648796
70	0xbbbfdcd2	-0.0058551813
71	0x3b8bedd8	0.0042702965
72	0x3d239cb8	0.03994438
73	0x3b343af1	0.0027500952
74	0x3b00f80d	0.00196791
75	0x3cf6ba40	0.030118108
76	0xbb85eeaf	-0.004087291
77	0xbba88ae7	-0.0051435116
78	0x3bff30eb	0.007787814
79	0x3c9b0959	0.018925356
80	0xbb351520	-0.0027631
81	0x3b2637b9	0.0025362803
82	0x3d3a6108	0.045502692
83	0x3b9b2832	0.0047350163
84	0x3c0a324b	0.008434842
85	0x3d11c993	0.035592627
86	0xbc4f43f7	-0.012650481
87	0xbc324852	-0.0108815
88	0x3b185f7f	0.002325028
89	0x3c8d5a81	0.01725507
90	0xbb96df71	-0.004604273
91	0x3a8b900d	0.0010647789
92	0x3d30d0a0	0.04316771
93	0x3c14c5dd	0.009080377
94	0x3c6d0ea1	0.01446882
95	0x3d1a8965	0.037728686
96	0xbbd87e8c	-0.0066068824
97	0xbc247042	-0.01003653
98	0x3bd545b5	0.006508554
99	0x3ca0d3a8	0.019632176
100	0x3aa2ea4e	0.0012429447
101	0x3bae8546	0.005325946
102	0x3d3fce9c	0.046827897
103	0x3c393956	0.011305174
104	0x3c4c98b3	0.012487578
105	0x3d1cbd27	0.038266327
106	0xbc258804	-0.010103229
107	0xbbd5d849	-0.0065260273
108	0x3bcc667f	0.0062378044
109	0x3cb406fe	0.02197599
110	0xbbc9b9a3	-0.006156163
111	0x3b875b75	0.0041307756
112	0x3d290d9e	0.041272752
113	0x3b847ac1	0.0040429537
114	0x3c1517c4	0.009099904
115	0x3d135c41	0.035976652
116	0xbbd4552d	-0.0064798803
117	0xbc04d81c	-0.008108165
118	0x3b9c531c	0.0047706496
119	0x3c9a0927	0.018803192
120	0x3a8ad45c	0.0010591852
121	0x3b84b6e7	0.004050124
122	0x3d3d9574	0.046285108
123	0x3c20888c	0.00979818
124	0x3c892626	0.016741823
125	0x3d278735	0.040900428
126	0xbc4c6e94	-0.012477536
127	0xbbbe246b	-0.005802681
128	0x3b9da152	0.0048104906
129	0x3cb52fe5	0.022117564
130	0xbacc1103	-0.0015569035
131	0x3c2bf371	0.010495053
132	0x3d29b0a6	0.04142823
133	0x3bf1832e	0.007370374
134	0x3c30140d	0.010746968
135	0x3d127ea0	0.03576529
136	0xbc22d5aa	-0.009938637
137	0xbbf92ad9	-0.007603985
138	0x3bceaffe	0.006307601
139	0x3cacffb7	0.021118028
140	0xbaba0f5f	-0.0014195255
141	0x3bb9f2c5	0.0056746923
142	0x3d3e2558	0.046422333
143	0x3bfd16b5	0.007723654
144	0x3c4fb9d5	0.012678583
145	0x3d1f0c31	0.038829986
146	0xbc4e67b9	-0.012597972
147	0xbc0fd39b	-0.008778478
148	0x3bcc9adf	0.006244048
149	0x3cad42d1	0.021150025
150	0xb99514e7	-0.00028435068
151	0x3bbc018a	0.005737488
152	0x3d2794a1	0.040913228
153	0x3be76f6c	0.007062843
154	0x3c2143e1	0.009842844
155	0x3d0cf247	0.03441074
156	0xbbb45c82	-0.005504192
157	0xbb4feacf	-0.003172565
158	0x3bfa8e8f	0.007646389
159	0x3ca0fe77	0.019652588

positionModel.wpmixerCore.resolutionBranch.0.patch_embedding_layer.bias f4 [16]
0	0xb8e27a05	-0.00010799248
1	0x399c8bdd	0.00029858845
2	0x39ceee2c	0.00039468834
3	0xb99fd5d5	-0.0003048616
4	0x345411ce	1.9750516e-07
5	0xb9c60a44	-0.0003777315
6	0xb948e982	-0.00019160475
7	0xba192cee	-0.0005843182
8	0xb9e11746	-0.00042932684
9	0xb99d7651	-0.00030033526
10	0x39a27cf0	0.00030992134
11	0xba6faa8d	-0.00091425405
12	0xbaabee09	-0.0013117205
13	0xba2d19b3	-0.0006603256
14	0xba154c26	-0.0005695246
15	0xba52e403	-0.00080448407

positionModel.wpmixerCore.resolutionBranch.0.mixer1.tMixer.layers.0.weight f4 [25, 5]
0	0x3d13e6bf	0.03610873
1	0x3ca7c94e	0.020481732
2	0x3ccabf99	0.024749564
3	0x3cb708f5	0.022343138
4	0x3cf8a5b3	0.030352449
5	0xbc900d7a	-0.017584551
6	0xbc22c908	-0.009935625
7	0xbc1c835c	-0.009552803
8	0xbc4518b1	-0.012029813
9	0xbc93574c	-0.017985962
10	0x38914f12	6.928867e-05
11	0x396eb070	0.00022763177
12	0xb86853d2	-5.5391174e-05
13	0xb9884c48	-0.00025996775
14	0x39a630ee	0.00031698443
15	0x39b745ee	0.00034956582
16	0x3b1ab564	0.0023606652
17	0xb903360c	-0.00012513268
18	0xbb1c4fcc	-0.0023851274
19	0x3b6429e7	0.0034815015
20	0xbcf611f1	-0.030037852
21	0xbc60e7b9	-0.013727122
22	0xbc64c7f7	-0.013963691
23	0xbc702f12	-0.01465966
24	0xbcedfb0c	-0.029050373
25	0x3d53562e	0.05159586
26	0x3cebe794	0.028796948
27	0x3d109fc0	0.0353086
28	0x3d0a4ad5	0.03376277
29	0x3d3f37dc	0.04668413
30	0xbd05a16b	-0.032624643
31	0xbc749fa5	-0.01493064
32	0xbc8d45f7	-0.017245276
33	0xbca93dc5	-0.020659337
34	0xbd11dce0	-0.035611033
35	0x36852eb4	3.969146e-06
36	0x358ff07d	1.0724322e-06
37	0x358212c4	9.691216e-07
38	0xb58f78f6	-1.0689535e-06
39	0x35877d05	1.0094669e-06
40	0xbab86a4b	-0.0014069764
41	0xbb8573d4	-0.0040726457
42	0x380db0d4	3.3781704e-05
43	0x3b688332	0.003547859
44	0xbb4d2c6e	-0.0031307
45	0xb9c5f52d	-0.00037757438
46	0xb99e7561	-0.00030223562
47	0x36895588	4.0928753e-06
48	0xb883e6a2	-6.2895255e-05
49	0xb9c8ac7b	-0.0003827548
50	0x3ceaf59e	0.028681573
51	0x3c91ed87	0.017813457
52	0x3ca8d74e	0.020610478
53	0x3cadde90	0.02122429
54	0x3cd4068e	0.025882032
55	0x3d9789bd	0.07399318
56	0x3d2ea587	0.042638328
57	0x3d5a663f	0.053320166
58	0x3d2cd89f	0.042198773
59	0x3d852ecc	0.065030664
60	0xb37133c4	-5.6159266e-08
61	0xb28ccadd	-1.6390397e-08
62	0xb29b9c89	-1.8115559e-08
63	0xb3a97be2	-7.89221e-08
64	0xb3bec4d0	-8.8833644e-08
65	0x36336f49	2.6737855e-06
66	0xb72c1f19	-1.0259239e-05
67	0xb636667f	-2.7179774e-06
68	0xb72a407f	-1.0147806e-05
69	0xb78273ea	-1.5551184e-05
70	0xbb109b71	-0.0022065307
71	0xbb0093ff	-0.0019619463
72	0xba35d23a	-0.0006935928
73	0xb8bf53f3	-9.1232265e-05
74	0xbb5919ff	-0.0033127067
75	0xbd07994b	-0.033105176
76	0xbc77b03d	-0.015117702
77	0xbc8f130e	-0.01746514
78	0xbc8b5ee2	-0.017013017
79	0xbd107b5d	-0.0352739
80	0x3d96d0de	0.07364057
81	0x3d339274	0.04384084
82	0x3d69317f	0.05693197
83	0x3d3f41c2	0.04669357
84	0x3d8ce5cf	0.0687977
85	0xb7fab867	-2.9888191e-05
86	0xb7c158ff	-2.3048835e-05
87	0x360d45ba	2.1051223e-06
88	0x36df4c78	6.65482e-06
89	0xb8236b01	-3.8961884e-05
90	0xbd0bf1e1	-0.03416622
91	0xbc748a99	-0.014925622
92	0xbca3049c	-0.019899659
93	0xbca12d17	-0.01967482
94	0xbd1167c7	-0.03549936
95	0xb8ef6177	-0.00011414562
96	0xb948c138	-0.00019145466
97	0x377487e9	1.4575177e-05
98	0x39a772fa	0.00031938386
99	0xb9991828	-0.00029200432
100	0xbd17ad8f	-0.037030753
101	0xbc885ade	-0.016644891
102	0xbcaa72ec	-0.020806752
103	0xbca60c37	-0.020269496
104	0xbd0c91b8	-0.034318656
105	0xbcf17926	-0.029476713
106	0xbc4f66c4	-0.012658779
107	0xbc82baca	-0.015958209
108	0xbc97239c	-0.018449597
109	0xbcfb1b6b	-0.030652722
110	0x3d613411	0.054981295
111	0x3d052182	0.03250266
112	0x3d178243	0.03698946
113	0x3d1d1fb1	0.0383603
114	0x3d538b85	0.051646728
115	0xb64c754e	-3.046665e-06
116	0xb63ad5e6	-2.7840665e-06
117	0xb5caa7b0	-1.5098976e-06
118	0x366daab7	3.5415121e-06
119	0xb6e19e09	-6.7239203e-06
120	0xbb3b15ca	-0.0028546923
121	0xbb5645d3	-0.0032695427
122	0xb952e0ca	-0.00020110901
123	0x3b374aa3	0.002796807
124	0xbb2d170b	-0.002641144

positionModel.wpmixerCore.resolutionBranch.0.mixer1.tMixer.layers.0.bias f4 [25]
0	0x3a0ba4cc	0.0005326986
1	0x3a1b305d	0.00059199875
2	0xb8c570ae	-9.41468e-05
3	0xba422c90	-0.0007407153
4	0x3aedba11	0.0018137117
5	0x3a43556a	0.00074513874
6	0x3999c0e6	0.00029326155
7	0x3722371e	9.668785e-06
8	0xbaf17fdd	-0.0018424947
9	0x3942f34e	0.0001859192
10	0xbb42e9de	-0.0029741446
11	0xba32da3e	-0.0006822682
12	0x34076661	1.26101e-07
13	0x37cfb0a3	2.4758576e-05
14	0xb97ed201	-0.0002430156
15	0xba1cb016	-0.00059771666
16	0x3a1b44a5	0.00059230096
17	0x3831a89a	4.235711e-05
18	0xb8f2e6a0	-0.000115824165
19	0xb93aa194	-0.00017798535
20	0xba139af9	-0.00056306977
21	0xbaaf4dac	-0.0013374588
22	0xba984b60	-0.0011619143
23	0xb577cb68	-9.2310665e-07
24	0xba2053d6	-0.0006116008

positionModel.wpmixerCore.resolutionBranch.0.mixer1.tMixer.layers.3.weight f4 [5, 25]
0	0xbcdd8468	-0.027040675
1	0x3c586fdd	0.013210264
2	0xb8c6c308	-9.477703e-05
3	0xbaebb303	-0.0017982427
4	0x3c9c4f84	0.019080885
5	0xbd1c0edf	-0.03810012
6	0x3cc34f94	0.023841657
7	0xb5fe0a29	-1.8927432e-06
8	0x3b6a335b	0.0035736177
9	0x388d7146	6.744503e-05
10	0xbcc055d2	-0.023478422
11	0xbd38beba	-0.045103766
12	0xb38f1138	-6.6620885e-08
13	0xb78f3baf	-1.707472e-05
14	0x3adada8d	0.0016697213
15	0x3cc2fafa	0.023801316
16	0xbd37baff	-0.044856068
17	0xb71fb05f	-9.518203e-06
18	0x3ccd2623	0.025042599
19	0x3a2dfe3b	0.00066373096
20	0x3cd89d6a	0.026442248
21	0x3cb601be	0.022217628
22	0xbd1f0569	-0.03882352
23	0x371238e3	8.715523e-06
24	0x3b01c037	0.0019798407
25	0xbcd0e205	-0.0254984
26	0x3c47d607	0.012197024
27	0xb9351106	-0.00017267847
28	0xba82a3d8	-0.0009967042
29	0x3c9c0c0a	0.01904871
30	0xbd14824a	-0.036257066
31	0x3caed2d9	0.021340774
32	0x3679130b	3.7114976e-06
33	0x39aac301	0.00032570216
34	0x399e9e0e	0.00030253868
35	0xbcb8cf83	-0.022559887
36	0xbd319aad	-0.0433604
37	0x330a278d	3.21666e-08
38	0x3780885a	1.5322283e-05
39	0x3ac0ccc0	0.0014709458
40	0x3cbb8c86	0.022894155
41	0xbd330e13	-0.043714594
42	0x3856a6eb	5.117703e-05
43	0x3cc7e0c8	0.024399176
44	0x3907f9f3	0.00012967717
45	0x3cd2d313	0.025735414
46	0x3caa7e41	0.020812156
47	0xbd18755f	-0.03722131
48	0xb6038fb5	-1.960417e-06
49	0x3a2d31cc	0.00066068466
50	0xbcd028b1	-0.025410028
51	0x3c446daa	0.011989037
52	0xb83f451b	-4.5602308e-05
53	0xba3f1132	-0.0007288634
54	0x3c98914c	0.01862397
55	0xbd11bab0	-0.03557843
56	0x3cb6c91e	0.022312697
57	0xb722d86e	-9.706344e-06
58	0x3b46f1df	0.0030356569
59	0xb85d1cae	-5.2717216e-05
60	0xbcb7c3c6	-0.02243222
61	0xbd30c130	-0.043152988
62	0xb40e688c	-1.3262814e-07
63	0xb79f8483	-1.9015983e-05
64	0x3acc02cd	0.00155648
65	0x3cc39d57	0.023878736
66	0xbd355092	-0.04426629
67	0xb78140d5	-1.5408188e-05
68	0x3cc8fa73	0.024533486
69	0x38be2593	9.066905e-05
70	0x3cd3a60e	0.025836017
71	0x3ca5bace	0.020230677
72	0xbd1ca3c4	-0.038242117
73	0x3663ef1e	3.396482e-06
74	0x3ad07316	0.0015903439
75	0xbcd093d5	-0.025461117
76	0x3c46dad4	0.012137134
77	0xb90f0fc5	-0.00013643417
78	0xba238608	-0.0006237929
79	0x3c9d31d5	0.0191888
80	0xbd1470f7	-0.036240544
81	0x3cb5a621	0.022173943
82	0x368a8d65	4.129181e-06
83	0xba6ef65b	-0.00091156893
84	0x39abb7c7	0.00032752586
85	0xbcb4ee6f	-0.02208635
86	0xbd306fd8	-0.043075413
87	0x33994e4e	7.138861e-08
88	0x37eba221	2.808968e-05
89	0x3a931b12	0.0011223278
90	0x3cbd3ba2	0.023099724
91	0xbd31a5f8	-0.04337117
92	0x381ba7eb	3.7111266e-05
93	0x3cc0c91b	0.023533395
94	0xb7e76080	-2.7582282e-05
95	0x3cd284bd	0.02569806
96	0x3ca6b23b	0.020348659
97	0xbd19787c	-0.03746842
98	0x34bfa25b	3.5694652e-07
99	0x3896611d	7.170646e-05
100	0xbcdd00d9	-0.026977943
101	0x3c554515	0.013016959
102	0xb8e7b0d8	-0.00011047878
103	0xba8c52ed	-0.0010705866
104	0x3ca56dcb	0.020193955
105	0xbd171717	-0.036887255
106	0x3cb60704	0.022220142
107	0x3667d487	3.454539e-06
108	0xb98f2bdf	-0.00027307772
109	0x39babc58	0.00035617012
110	0xbcbe2fd3	-0.023216164
111	0xbd377d65	-0.04479732
112	0x3382da60	6.093319e-08
113	0x3794a421	1.7719403e-05
114	0x3aab1e28	0.0013055252
115	0x3cbc384f	0.022976069
116	0xbd353fdc	-0.044250354
117	0x37e3eef9	2.7171789e-05
118	0x3cc8468f	0.024447707
119	0x37cd9d56	2.451117e-05
120	0x3cd68399	0.026185798
121	0x3cb2836b	0.02179118
122	0xbd1edae0	-0.038782954
123	0x3492000c	2.7194653e-07
124	0xba485d50	-0.0007643299

positionModel.wpmixerCore.resolutionBranch.0.mixer1.tMixer.layers.3.bias f4 [5]
0	0xba0a7696	-0.0005281953
1	0x39a92251	0.0003225976
2	0xb8cd8913	-9.800694e-05
3	0x3a015030	0.00049329083
4	0x399d246d	0.00029972513

positionModel.wpmixerCore.resolutionBranch.0.mixer1.norm1.weight f4 [18]
0	0x3df3d7e0	0.11906409
1	0x3d7048bc	0.058663115
2	0x3d6225d5	0.05521186
3	0x3d6222d4	0.055208996
4	0x3d470123	0.04858507
5	0x3d742523	0.05960573
6	0x3d9b13cf	0.075721376
7	0x3d6ea269	0.058260355
8	0x3d39d41f	0.04536831
9	0x3d7ca29c	0.061678514
10	0x3d3b7dde	0.045774333
11	0x3d785066	0.06062355
12	0x3d30edab	0.043195408
13	0x3d7eaf1e	0.062178724
14	0x3d418475	0.04724546
15	0x3d690475	0.056889016
16	0x3d4c0109	0.049805675
17	0x3d6e448d	0.058170844

positionModel.wpmixerCore.resolutionBranch.0.mixer1.norm1.bias f4 [18]
0	0xbc93a522	-0.018023077
1	0x3b25bbca	0.0025288933
2	0x39ff5227	0.00048698598
3	0x3ba5fed9	0.0050657806
4	0x3ba476bb	0.0050190366
5	0x3b1d6f2d	0.0024022565
6	0xbc154687	-0.009111053
7	0x398dcec4	0.00027047668
8	0x3ac16d5b	0.0014757322
9	0x3b425004	0.0029649744
10	0xbabb4a28	-0.0014289068
11	0xb9053322	-0.00012702917
12	0x3c06a9ce	0.0082191955
13	0x3ac83301	0.0015273989
14	0x3a9cb068	0.0011954429
15	0x3b84211e	0.004032268
16	0x3b4c9df6	0.0031222082
17	0x3b630d8d	0.0034645528

positionModel.wpmixerCore.resolutionBranch.0.mixer1.norm1.running_mean f4 [18]
0	0xbae8bd0b	-0.0017756535
1	0xb87a2aff	-5.9644688e-05
2	0x3a1e6b8a	0.0006043246
3	0xb8a8dac7	-8.051615e-05
4	0x3909a0ce	0.00013125243
5	0xb993378e	-0.00028079416
6	0xbaf890ec	-0.0018964089
7	0xb920dc8f	-0.00015340954
8	0x386de397	5.6717163e-05
9	0xb8922d98	-6.970315e-05
10	0x39bdc445	0.0003619512
11	0xb98fd4b8	-0.00027433573
12	0x3921fcfc	0.000154484
13	0xb8b54822	-8.644188e-05
14	0xb91d579e	-0.00015005327
15	0xb8b97be9	-8.8445675e-05
16	0xb9834e77	-0.00025044728
17	0x3919c654	0.000146651

positionModel.wpmixerCore.resolutionBranch.0.mixer1.norm1.running_var f4 [18]
0	0x38e8fcd4	0.00011109715
1	0x37e84dd3	2.7692795e-05
2	0x378d5d47	1.6851945e-05
3	0x37c146b6	2.304032e-05
4	0x375d9a5a	1.3208564e-05
5	0x37ded1e8	2.6562207e-05
6	0x38c4ccc3	9.384148e-05
7	0x37d4f32b	2.5385603e-05
8	0x3741c66f	1.1549898e-05
9	0x37ec1a52	2.8145649e-05
10	0x373ee9e4	1.1379339e-05
11	0x37ed9774	2.8323127e-05
12	0x36e8bb6d	6.935958e-06
13	0x37f62faf	2.934769e-05
14	0x377187cb	1.4396336e-05
15	0x37cea202	2.4632554e-05
16	0x37c07f42	2.2947443e-05
17	0x37d46275	2.5318217e-05

positionModel.wpmixerCore.resolutionBranch.0.mixer1.norm2.weight f4 [18]
0	0x3d92731e	0.07150863
1	0x3d27ee90	0.040998995
2	0x3d202301	0.039095882
3	0x3d2043f8	0.03912732
4	0x3d07b965	0.03313579
5	0x3d282b98	0.0410572
6	0x3d0e9a10	0.034814894
7	0x3d274de6	0.040845774
8	0x3d04c874	0.03241773
9	0x3d2d9003	0.04237367
10	0x3d0aae1b	0.033857446
11	0x3d2d3291	0.042284552
12	0x3d0093d2	0.031390972
13	0x3d2dfd31	0.04247779
14	0x3d07d489	0.033161674
15	0x3d24346e	0.040089063
16	0x3d123e90	0.035704195
17	0x3d29494f	0.04132968

positionModel.wpmixerCore.resolutionBranch.0.mixer1.norm2.bias f4 [18]
0	0x3567c136	8.6335365e-07
1	0x3598adff	1.1375522e-06
2	0x34cd7c94	3.8274868e-07
3	0x35ebf839	1.7581107e-06
4	0x3627be2e	2.4995638e-06
5	0x339e26f4	7.364534e-08
6	0xb6c118d1	-5.7547372e-06
7	0xb5e0de9e	-1.6754091e-06
8	0x35847716	9.869425e-07
9	0xb6ac1cf8	-5.129372e-06
10	0x35706116	8.9548246e-07
11	0x35803f36	9.55514e-07
12	0x35c6c8b7	1.4810565e-06
13	0xb58f69ff	-1.0685179e-06
14	0xb5d901e3	-1.6168309e-06
15	0xb663c69f	-3.3941249e-06
16	0xb64a0f91	-3.0109406e-06
17	0xb651fa4f	-3.1289126e-06

positionModel.wpmixerCore.resolutionBranch.0.mixer1.norm2.running_mean f4 [18]
0	0x3a310fd4	0.0006754373
1	0x3858ea35	5.1716535e-05
2	0x3906d57d	0.00012858766
3	0xb7f3433d	-2.8999168e-05
4	0xb73417cb	-1.0734376e-05
5	0x389611bc	7.155861e-05
6	0x39d6c09b	0.00040960763
7	0x390af4cc	0.000132519
8	0x38b4aaf0	8.6149084e-05
9	0x37fdb745	3.0245292e-05
10	0x394b1f3b	0.00019371223
11	0x390103f1	0.00012303867
12	0xb9017e03	-0.00012349342
13	0x38c5dfd5	9.435384e-05
14	0x38dfdcbb	0.00010674583
15	0x350e87c6	5.30967e-07
16	0x380310e5	3.1248568e-05
17	0x3790f886	1.7281865e-05

positionModel.wpmixerCore.resolutionBranch.0.mixer1.norm2.running_var f4 [18]
0	0x36f198d8	7.200153e-06
1	0x35fe2264	1.8934484e-06
2	0x357812df	9.241466e-07
3	0x35d1a5c0	1.5619953e-06
4	0x35436d7c	7.280248e-07
5	0x35fcf99f	1.8848112e-06
6	0x3611068b	2.1610492e-06
7	0x35f141d0	1.7975053e-06
8	0x354b38e2	7.570617e-07
9	0x36093155	2.0443306e-06
10	0x352a6c90	6.3487914e-07
11	0x36064da1	2.0012742e-06
12	0x350032b4	4.77575e-07
13	0x360d5c76	2.1064457e-06
14	0x355915af	8.0870353e-07
15	0x35e3fbbe	1.6986085e-06
16	0x35a6a508	1.2415994e-06
17	0x35f18b4a	1.7996438e-06

positionModel.wpmixerCore.resolutionBranch.0.mixer1.embeddingMixer.0.weight f4 [112, 16]
0	0x187d3110	3.2724254e-24
1	0x97c585db	-1.2764616e-24
2	0x981d6537	-2.0342875e-24
3	0x98f9d341	-6.4578303e-24
4	0x17b3763b	1.1597449e-24
5	0x96ebb2d4	-3.8079154e-25
6	0x97874cfb	-8.743603e-25
7	0x98f0fd82	-6.2294523e-24
8	0x17f03f86	1.5525672e-24
9	0x9815f7ae	-1.9382845e-24
10	0x98819537	-3.3496387e-24
11	0x984ae04f	-2.6221135e-24
12	0x97e604cd	-1.4864614e-24
13	0x98c2b1ac	-5.0327227e-24
14	0x99240d6e	-8.481313e-24
15	0x97b4ee96	-1.1692455e-24
16	0xb40b21e7	-1.2957717e-07
17	0xb4e177fa	-4.199681e-07
18	0x344cd250	1.9075492e-07
19	0xb4b8b1bd	-3.4401992e-07
20	0x3539db0c	6.9236626e-07
21	0xb48d4b34	-2.6318014e-07
22	0x3574ee60	9.1243965e-07
23	0x346c7e8b	2.2025249e-07
24	0x350b0aaf	5.179708e-07
25	0xb517eb6e	-5.659448e-07
26	0x352091a4	5.981658e-07
27	0x35907324	1.0762346e-06
28	0x33684e0a	5.4087685e-08
29	0x339cf57f	7.3089716e-08
30	0x35ccdcd4	1.5263454e-06
31	0xb251e45f	-1.2217327e-08
32	0x36ba1f8b	5.546904e-06
33	0x369bfb67	4.648627e-06
34	0x36865201	4.0030577e-06
35	0xb6473614	-2.9684788e-06
36	0xb6a7843f	-4.9923833e-06
37	0x37765e83	1.4684748e-05
38	0x36b47df9	5.379083e-06
39	0x363e0b1b	2.831867e-06
40	0x364d9df4	3.0639321e-06
41	0x36623b3e	3.3711108e-06
42	0x375f1033	1.32956075e-05
43	0x36c5eddf	5.8987494e-06
44	0x3750219d	1.2405592e-05
45	0x3740d9a5	1.1494766e-05
46	0x37d0a2e7	2.487139e-05
47	0x36e10e19	6.7071637e-06
48	0xb6c6ceac	-5.9249196e-06
49	0xb7e1ed0e	-2.6932477e-05
50	0x351f1f95	5.9278074e-07
51	0xb68d0bfc	-4.2035226e-06
52	0xb757e7aa	-1.2868937e-05
53	0xb7909978	-1.7237602e-05
54	0xb6d6c472	-6.4005662e-06
55	0xb6d5c6a2	-6.3710186e-06
56	0xb665f032	-3.4263471e-06
57	0xb767b7d7	-1.38114765e-05
58	0xb7ac47bc	-2.0537402e-05
59	0xb576a213	-9.187799e-07
60	0xb6e49c7f	-6.813148e-06
61	0xb66c36b4	-3.5198582e-06
62	0x35f45e51	1.8206866e-06
63	0xb79b5972	-1.8519091e-05
64	0x268a27fd	9.586512e-16
65	0x26b3656f	1.2448114e-15
66	0xa6626b6d	-7.855509e-16
67	0x25d70d51	3.7305578e-16
68	0x2617821d	5.2564985e-16
69	0x2690b572	1.0041188e-15
70	0x26ed3389	1.6459147e-15
71	0x26a3f1ab	1.1375901e-15
72	0x26c3c3bf	1.35839e-15
73	0x261d0ea7	5.4490175e-16
74	0x2760886b	3.1160197e-15
75	0x264d49d3	7.1223713e-16
76	0x267aa666	8.6961686e-16
77	0x26cd785b	1.4257355e-15
78	0x2721b784	2.2442722e-15
79	0x26c349b2	1.3550818e-15
80	0x341fa6de	1.4868735e-07
81	0xb7c16d07	-2.3058163e-05
82	0xb6b90a1c	-5.5146065e-06
83	0xb7956752	-1.7810296e-05
84	0xb6f36ae5	-7.2544085e-06
85	0xb7fb3846	-2.9947736e-05
86	0xb78cda05	-1.6790824e-05
87	0xb7988027	-1.8179488e-05
88	0xb52dad1f	-6.4699447e-07
89	0xb6e996bf	-6.9614903e-06
90	0xb81d2e17	-3.747464e-05
91	0xb2d7e575	-2.513364e-08
92	0xb722eb93	-9.710801e-06
93	0xb78e7412	-1.6981769e-05
94	0xb7dc1db7	-2.623988e-05
95	0xb7d22d4d	-2.5055046e-05
96	0xac841e94	-3.7550605e-12
97	0xada4e396	-1.874571e-11
98	0xad110adb	-8.244706e-12
99	0xab45a894	-7.022241e-13
100	0xacba6762	-5.2979158e-12
101	0xada8c054	-1.91848e-11
102	0x2c17e324	2.158448e-12
103	0xac035d25	-1.8667925e-12
104	0x2b0e3826	5.0526456e-13
105	0x2c695d3d	3.316305e-12
106	0x2cabe7f2	4.8858634e-12
107	0xaa514adb	-1.85889e-13
108	0x2c4edb05	2.939594e-12
109	0x2d4900f6	1.14257406e-11
110	0x2d8b1253	1.5810608e-11
111	0x2c2ce540	2.456993e-12
112	0xa5d16de0	-3.6330175e-16
113	0xa688bf5f	-9.488767e-16
114	0xa60b261b	-4.8276955e-16
115	0xa6b8136d	-1.277283e-15
116	0xa6c01276	-1.332768e-15
117	0xa61998e1	-5.328973e-16
118	0xa625d2ac	-5.753139e-16
119	0xa5e9123c	-4.0431413e-16
120	0x263ecc65	6.61965e-16
121	0xa67ee59e	-8.843514e-16
122	0xa707042a	-1.873727e-15
123	0x24b6a501	7.9209446e-17
124	0xa6abf412	-1.1931664e-15
125	0xa51df726	-1.3701316e-16
126	0xa58bfbe8	-2.4283355e-16
127	0xa65bb2e7	-7.6223346e-16
128	0x9f7198c5	-5.1160103e-20
129	0xa13719ca	-6.2036943e-19
130	0xa1340bbf	-6.100192e-19
131	0xa1378ca6	-6.218896e-19
132	0xa0c566be	-3.3441087e-19
133	0xa072b8a5	-2.0559291e-19
134	0xa163b757	-7.715324e-19
135	0xa115b6dc	-5.0725176e-19
136	0xa102ac82	-4.4274025e-19
137	0xa00d1f2b	-1.1953477e-19
138	0xa1e4133d	-1.5454973e-18
139	0xa04b9ac9	-1.7245983e-19
140	0x9f0b1cc1	-2.945818e-20
141	0xa16d12cf	-8.0323616e-19
142	0xa19ff3f4	-1.0838833e-18
143	0xa13337ca	-6.0721395e-19
144	0xabb104a3	-1.2577893e-12
145	0x2bea39d9	1.6642756e-12
146	0xab8cd29f	-1.0006057e-12
147	0xab285a63	-5.9811027e-13
148	0x2b5cbb4c	7.841963e-13
149	0xabb1feb2	-1.2647299e-12
150	0x2a9e91d6	2.8167632e-13
151	0xab87b4c7	-9.642503e-13
152	0xa84053f0	-1.0676342e-14
153	0xaafdea7f	-4.5104542e-13
154	0xa98e3870	-6.315857e-14
155	0x2b9c0e6c	1.108847e-12
156	0xab3dd88d	-6.7446813e-13
157	0xac01a132	-1.8421484e-12
158	0xac5f55fb	-3.1737935e-12
159	0x2a556cdd	1.895597e-13
160	0x9c648e68	-7.562293e-22
161	0x9cd315d8	-1.3968455e-21
162	0x1d373993	2.4249614e-21
163	0x9be8f957	-3.8542313e-22
164	0x9d10b1c0	-1.9150136e-21
165	0x1d2e2caa	2.30518e-21
166	0x9cc109cd	-1.2774202e-21
167	0x9d56c46e	-2.8424216e-21
168	0x9c7d504e	-8.381447e-22
169	0x9d73ea7c	-3.2282008e-21
170	0x9d10fb48	-1.918815e-21
171	0x9c0e76ae	-4.713725e-22
172	0x9ce6af04	-1.5265364e-21
173	0x1c8b5cf9	9.222281e-22
174	0x9d825035	-3.4493646e-21
175	0x9d4ea969	-2.7351456e-21
176	0x09c74fdd	4.798261e-33
177	0x8af23983	-2.3325386e-32
178	0x8a103876	-6.943967e-33
179	0x89c7e502	-4.8122865e-33
180	0x8ac912ae	-1.9362622e-32
181	0x8a0129d9	-6.218995e-33
182	0x8aaf7d6a	-1.6899063e-32
183	0x0a0148a3	6.2247855e-33
184	0x0a5696c6	1.03320825e-32
185	0x8aa01af1	-1.5417574e-32
186	0x8a66822b	-1.1098579e-32
187	0x8a12c35f	-7.0663895e-33
188	0x8a842315	-1.2724334e-32
189	0x0a2be787	8.276896e-33
190	0x8a59b41a	-1.0482043e-32
191	0x09ea941e	5.647274e-33
192	0xafdb5a23	-3.9899914e-10
193	0xaf3e5045	-1.7308917e-10
194	0x2fa2d9d6	2.962241e-10
195	0xaea09c3f	-7.3037125e-11
196	0x2ebe0850	8.641676e-11
197	0xb0002ce5	-4.662993e-10
198	0x2ea3ca8d	7.448362e-11
199	0x2f2a5e5c	1.5494933e-10
200	0xaf179c9b	-1.3789007e-10
201	0x2edfc83a	1.0176433e-10
202	0x2f40abe4	1.7523366e-10
203	0x2e8a71b2	6.29571e-11
204	0x2f32d079	1.626307e-10
205	0xae351177	-4.1170147e-11
206	0x2fcc817e	3.7199394e-10
207	0x2f9a687c	2.8086677e-10
208	0xb53b8486	-6.9855776e-07
209	0xb60fb2f3	-2.1412823e-06
210	0xb35736ee	-5.0108547e-08
211	0xb4ad891d	-3.2323524e-07
212	0xb5245223	-6.1214286e-07
213	0xb5561665	-7.97538e-07
214	0xb545ef3a	-7.373634e-07
215	0xb56098eb	-8.366903e-07
216	0xb48a2358	-2.573022e-07
217	0xb59fc2bc	-1.1903098e-06
218	0xb50346cd	-4.890433e-07
219	0xb43c3074	-1.7526492e-07
220	0xb414d94c	-1.3862626e-07
221	0xb54535f5	-7.3466737e-07
222	0xb2ab5e6f	-1.9949963e-08
223	0xb5a2947b	-1.2113154e-06
224	0xae750ddb	-5.5718857e-11
225	0x2ea0b02a	7.3072506e-11
226	0xad703827	-1.3654889e-11
227	0xaddc4851	-2.504322e-11
228	0x2db90fd6	2.1039098e-11
229	0xae18532f	-3.463468e-11
230	0xac2407c8	-2.3310121e-12
231	0x2e5ff11e	5.0918485e-11
232	0xae13873f	-3.3544053e-11
233	0x2e86c119	6.1279155e-11
234	0x2e48faa9	4.5697366e-11
235	0xad77f645	-1.4095007e-11
236	0x2e7f7c87	5.809089e-11
237	0xad8783c1	-1.5406234e-11
238	0x2d8a7a8e	1.5743209e-11
239	0x2cee2ef5	6.76958e-12
240	0x9e1908a0	-8.101536e-21
241	0x1d81ee78	3.4392587e-21
242	0x9ea8fb62	-1.7891661e-20
243	0x9e6a71f8	-1.2411425e-20
244	0x9eafe124	-1.8621962e-20
245	0x9fac8808	-7.306988e-20
246	0x9f9005b7	-6.0995827e-20
247	0x9de1f22c	-5.9807404e-21
248	0x9e1f9bcd	-8.449609e-21
249	0x9f3098cb	-3.7395837e-20
250	0x9fa70ac1	-7.074504e-20
251	0x9f74eb56	-5.1863675e-20
252	0x9e6e37b3	-1.26111334e-20
253	0x9e6c873c	-1.2521702e-20
254	0x9edd16bb	-2.3408686e-20
255	0x9f8e6ace	-6.031603e-20

positionModel.wpmixerCore.resolutionBranch.0.mixer1.embeddingMixer.0.bias f4 [112]
0	0x99b52368	-1.8729262e-23
1	0x36b62cab	5.4292227e-06
2	0xb81ed0cd	-3.7864596e-05
3	0xb82c2d71	-4.1050316e-05
4	0x2825f868	9.2132045e-15
5	0xb91a9abf	-0.00014744232
6	0x2f3ff7da	1.7459403e-10
7	0xa7c13bac	-5.3632957e-15
8	0xa3137fe6	-7.9959695e-18
9	0x2d434853	1.1100526e-11
10	0x9e83d523	-1.3958316e-20
11	0x8c27ef7b	-1.2937278e-31
12	0x31cd456a	5.9741767e-09
13	0x361355bf	2.1954618e-06
14	0xafd02e85	-3.7868034e-10
15	0xa0df7993	-3.785812e-19
16	0xb1a98871	-4.934059e-09
17	0x38becad2	9.097684e-05
18	0x1563f51a	4.6035636e-26
19	0x3009228b	4.98894e-10
20	0x30209349	5.8416966e-10
21	0x37ba2855	2.2191709e-05
22	0x9aa2e334	-6.7368696e-23
23	0xb124a9fc	-2.3961766e-09
24	0xaea9fd13	-7.730185e-11
25	0x36978beb	4.5164393e-06
26	0xa516481c	-1.3034858e-16
27	0x37f92eaf	2.9704852e-05
28	0xb08529fc	-9.688956e-10
29	0xb056100b	-7.7875545e-10
30	0x924d6730	-6.4813783e-28
31	0x39d359b0	0.0004031188
32	0xae60baa2	-5.1097467e-11
33	0x93b7471d	-4.6265818e-27
34	0xb5770a4c	-9.2029654e-07
35	0x225a3fa9	2.957821e-18
36	0xb1462426	-2.883334e-09
37	0x3613fab0	2.2050626e-06
38	0x3658ffa7	3.2335317e-06
39	0x37d200f5	2.5034396e-05
40	0x1c3123ab	5.8610487e-22
41	0xb0bd5a84	-1.3777286e-09
42	0x36ffb195	7.6202655e-06
43	0x330dd3d1	3.3021767e-08
44	0xb6972d04	-4.505391e-06
45	0xa1a73142	-1.1329399e-18
46	0x2031df03	1.5066272e-19
47	0xb6e10c94	-6.706987e-06
48	0x0d5072ec	6.423328e-31
49	0x272b5e38	2.3782093e-15
50	0x8e9cac99	-3.8623175e-30
51	0x2abee5b2	3.3910163e-13
52	0xb6314165	-2.641312e-06
53	0xa5397db8	-1.6088787e-16
54	0x3480e4f2	2.4008438e-07
55	0x2416c119	3.2689625e-17
56	0x38cc5a73	9.7443255e-05
57	0xb6c0f864	-5.7509624e-06
58	0x324269ce	1.1316343e-08
59	0xb082df9e	-9.522301e-10
60	0x2d5d1a56	1.2568243e-11
61	0xb0b40209	-1.3097302e-09
62	0x25ef636b	4.152726e-16
63	0x39589a16	0.00020656767
64	0xb91a8df6	-0.00014739469
65	0x16d06705	3.3669227e-25
66	0x297c7a5d	5.6061374e-14
67	0xa7aeef0c	-4.8553877e-15
68	0x9cfa9897	-1.6583056e-21
69	0xa390722e	-1.5660868e-17
70	0xb172ea16	-3.5348697e-09
71	0x36217a97	2.4062226e-06
72	0x1b157673	1.2363264e-22
73	0xb6c90764	-5.991127e-06
74	0xb37245ac	-5.6408382e-08
75	0x2089bcd4	2.333366e-19
76	0x38ea2047	0.000111640016
77	0x30dc1269	1.6012339e-09
78	0xa8f89228	-2.7596916e-14
79	0xae60806b	-5.104576e-11
80	0xa647e2b3	-6.934923e-16
81	0xb546e9b1	-7.4100814e-07
82	0x1fd440f8	8.9892974e-20
83	0x2db28107	2.0293557e-11
84	0x34240443	1.527524e-07
85	0xa4b67969	-7.9135595e-17
86	0x94149bc4	-7.50281e-27
87	0x34373440	1.7062212e-07
88	0x3b2b4b15	0.0026137282
89	0xa8b3e769	-1.997335e-14
90	0xa00ea5dd	-1.2082747e-19
91	0x36ada69b	5.175197e-06
92	0x3a1d4c36	0.0006000431
93	0x2e38695d	4.1930338e-11
94	0x22a92873	4.585037e-18
95	0xb95ea44c	-0.00021232775
96	0x390fcf26	0.00013714712
97	0x97147e0d	-4.798048e-25
98	0xb207263f	-7.86673e-09
99	0x27351124	2.5128088e-15
100	0x37e2a77d	2.7019292e-05
101	0xa2c54a87	-5.3475866e-18
102	0xaa3ffd39	-1.7052062e-13
103	0xaa022019	-1.1557456e-13
104	0xab0c9f62	-4.995918e-13
105	0x2005a2ca	1.13194e-19
106	0xaadd568f	-3.9317548e-13
107	0x058c7a43	1.3210449e-35
108	0x2ae1bd9c	4.0099597e-13
109	0x9e31a42b	-9.404251e-21
110	0x3430011f	1.6391685e-07
111	0xb703adf5	-7.848711e-06

positionModel.wpmixerCore.resolutionBranch.0.mixer1.embeddingMixer.3.weight f4 [16, 112]
0	0x18e6cc09	5.965963e-24
1	0x35279dbe	6.2441893e-07
2	0x38250e36	3.93523e-05
3	0xb8612eb3	-5.3687672e-05
4	0x27df6bae	6.201168e-15
5	0xb8743503	-5.8223504e-05
6	0x2ee5962b	1.04403895e-10
7	0xa79e8327	-4.3996005e-15
8	0xa2897045	-3.7252794e-18
9	0x2c45f648	2.8132097e-12
10	0x9ea746c0	-1.7711074e-20
11	0x0bdfae91	8.6159134e-32
12	0x314e9138	3.0059493e-09
13	0xb5a9862f	-1.2630534e-06
14	0x2f7a4250	2.2760926e-10
15	0x9fbd2b9e	-8.011677e-20
16	0xb06131cd	-8.1925294e-10
17	0x3838acbb	4.4029886e-05
18	0x954b9bea	-4.1118518e-26
19	0x2f7220e1	2.2021453e-10
20	0x2f5b29c3	1.9932771e-10
21	0x37497714	1.2008259e-05
22	0x9a7d3c8f	-5.2368093e-23
23	0xb0a478e0	-1.1966925e-09
24	0xaeeec10c	-1.0857279e-10
25	0x36015e2f	1.927732e-06
26	0xa4b85981	-7.9948905e-17
27	0xb7e6995a	-2.7489546e-05
28	0xb007161e	-4.9144144e-10
29	0xaf9e84b3	-2.883432e-10
30	0x12e2596f	1.4284652e-27
31	0x396acb0a	0.00022391617
32	0xae0442c2	-3.0072618e-11
33	0x923aed74	-5.8983935e-28
34	0xb8839fca	-6.27633e-05
35	0x2191923b	9.864289e-19
36	0xb116a2f1	-2.1920494e-09
37	0xb51e0e63	-5.888052e-07
38	0x35d428d6	1.5807116e-06
39	0x3798093a	1.8124108e-05
40	0x9c4ff100	-6.880204e-22
41	0xb04583be	-7.18554e-10
42	0x36806676	3.8266253e-06
43	0x325a4af1	1.270631e-08
44	0xb6285d56	-2.508828e-06
45	0xa18105b7	-8.742893e-19
46	0xa01c6275	-1.3246291e-19
47	0xb5a5d3ad	-1.2355064e-06
48	0x8f4934f1	-9.920261e-30
49	0x26eb1fa9	1.6314982e-15
50	0x0f733a96	1.1992108e-29
51	0x2a45b110	1.7558546e-13
52	0xb590ff1c	-1.0803083e-06
53	0xa4340211	-3.903303e-17
54	0xb4cbef59	-3.7985845e-07
55	0x2374477f	1.3242406e-17
56	0xb7b6f5ff	-2.1810642e-05
57	0xb64aafcb	-3.020267e-06
58	0x324ec649	1.2035863e-08
59	0xb00a3bd8	-5.028915e-10
60	0x2d083e64	7.7445585e-12
61	0xafe3fad3	-4.146928e-10
62	0x252f5880	1.5208815e-16
63	0x38bb125e	8.920276e-05
64	0xba191246	-0.000583921
65	0x9642e911	-1.5744738e-25
66	0x28f9ff61	2.7755306e-14
67	0x278b5358	3.867061e-15
68	0x9cade13b	-1.15064e-21
69	0xa330bcee	-9.5809865e-18
70	0xb1284599	-2.448678e-09
71	0xb45bfe43	-2.0488464e-07
72	0x9aebb680	-9.7488567e-23
73	0x36bfff49	5.7219627e-06
74	0xb2b2a33d	-2.079616e-08
75	0x1f5624fc	4.5346855e-20
76	0x3889434b	6.545203e-05
77	0x3087ed70	9.890027e-10
78	0xa885bed1	-1.484872e-14
79	0xae1bd635	-3.5433174e-11
80	0xa5e0772b	-3.8938557e-16
81	0xb5328398	-6.650166e-07
82	0x9f6d8fbc	-5.0305596e-20
83	0xadd4b5ef	-2.4182404e-11
84	0x33470bce	4.6344034e-08
85	0xa0575951	-1.8240761e-19
86	0x938dd4bf	-3.5803188e-27
87	0x33cfcda0	9.6765916e-08
88	0x3a847605	0.0010105973
89	0xa81b991c	-8.637429e-15
90	0x9f9b24b2	-6.570576e-20
91	0x350a0549	5.1416697e-07
92	0x3a0470a1	0.00050521834
93	0xae53e4ac	-4.8178947e-11
94	0x22c16f17	5.2430376e-18
95	0xb8c8b66d	-9.5707226e-05
96	0x389520f4	7.111012e-05
97	0x17a85f82	1.0880855e-24
98	0xb0dce18e	-1.6071213e-09
99	0xa7b407c8	-4.9968473e-15
100	0xb9191c26	-0.00014601703
101	0x21a71cd7	1.1323994e-18
102	0xa872a70b	-1.346992e-14
103	0xaa08bc44	-1.2144544e-13
104	0xaa038d13	-1.1684082e-13
105	0x1fbc6733	7.9791826e-20
106	0x2a6c4542	2.098504e-13
107	0x853f7874	-9.0029006e-36
108	0x2a1ece8e	1.4104882e-13
109	0x1b810c44	2.1349186e-22
110	0x3358600d	5.0378777e-08
111	0x34d0eb56	3.8914249e-07
112	0x19b79139	1.8980411e-23
113	0xb72b2e95	-1.020324e-05
114	0x39393dcb	0.00017665995
115	0xb9045800	-0.00012621284
116	0x28528c7d	1.1687805e-14
117	0xb8a74de3	-7.977688e-05
118	0xaedac7b6	-9.948968e-11
119	0xa87856dd	-1.3785601e-14
120	0xa1200d42	-5.4227655e-19
121	0xadd44ee8	-2.4136651e-11
122	0x9ebff619	-2.0324695e-20
123	0x0c888f73	2.1040453e-31
124	0xb0c7cbe2	-1.4537103e-09
125	0xb763a984	-1.3569723e-05
126	0x2ffc28bd	4.586748e-10
127	0x9b5f39ce	-1.8464805e-22
128	0x30b450ec	1.3119723e-09
129	0xb83391ec	-4.2812826e-05
130	0x962a4fc4	-1.375766e-25
131	0x2f314a97	1.6124556e-10
132	0x2df56f3b	2.7902671e-11
133	0xb68f2106	-4.2655765e-06
134	0x9a88205e	-5.6300574e-23
135	0x30f6c051	1.7953515e-09
136	0x2f313a6e	1.6118815e-10
137	0xb6891604	-4.085481e-06
138	0xa526328b	-1.441533e-16
139	0xb90c333d	-0.00013370528
140	0xb037a7ae	-6.68133e-10
141	0xafae83a2	-3.1743946e-10
142	0x13d48826	5.3650577e-27
143	0xb7f78196	-2.9505038e-05
144	0xac5f4347	-3.1727552e-12
145	0x13a8ae20	4.2580863e-27
146	0xb99d61a3	-0.0003001812
147	0xa16c38d0	-8.00351e-19
148	0xb1888f2e	-3.9743986e-09
149	0x35801b8b	9.544759e-07
150	0xb66700ee	-3.4422224e-06
151	0x370b7551	8.3123605e-06
152	0x9d3c0187	-2.4882382e-21
153	0xb0382c74	-6.700198e-10
154	0xb69e1f6d	-4.7124254e-06
155	0xb23fb48e	-1.1158717e-08
156	0x3624f250	2.4578949e-06
157	0xa23ccfab	-2.558869e-18
158	0xa1464a42	-6.718329e-19
159	0x36e2d501	6.760122e-06
160	0x9031497c	-3.4963705e-29
161	0x27881a4d	3.77761e-15
162	0x100b0600	2.741754e-29
163	0x2a6b759e	2.0913e-13
164	0x3669e797	3.4854509e-06
165	0xa494bfd7	-6.450976e-17
166	0xb6229169	-2.422452e-06
167	0x22c86f52	5.4327974e-18
168	0xb98c95e1	-0.0002681455
169	0x36338f72	2.6756575e-06
170	0xb1a46916	-4.784975e-09
171	0x2ea5f239	7.546359e-11
172	0xacac9810	-4.9054164e-12
173	0xaeb30b51	-8.141988e-11
174	0xa55b3098	-1.9011686e-16
175	0x3929a3dd	0.0001617814
176	0xbadaa267	-0.001668048
177	0x96fb780b	-4.0626995e-25
178	0x28cb63ff	2.2580894e-14
179	0x28970308	1.6765682e-14
180	0x9d20d5b7	-2.1286312e-21
181	0xa107c095	-4.599466e-19
182	0x30715e84	8.7809604e-10
183	0xb68e7a05	-4.2461347e-06
184	0x9bcdd664	-3.4052952e-22
185	0x37a47052	1.9602627e-05
186	0xb1df81d7	-6.5049153e-09
187	0x1e90a2a2	1.5313856e-20
188	0x38ddccc7	0.00010576244
189	0xb36296bb	-5.2756814e-08
190	0xa8dbb152	-2.4390785e-14
191	0xacadf684	-4.9443245e-12
192	0x2481e7b1	5.633733e-17
193	0xb3af49ff	-8.162532e-08
194	0xa0d34953	-3.5793312e-19
195	0xaedf866d	-1.0164745e-10
196	0xb135d470	-2.6459723e-09
197	0x25a2298c	2.8130674e-16
198	0x946bb159	-1.1899444e-26
199	0xb38b6652	-6.491304e-08
200	0xbb1ee315	-0.0024244238
201	0x2879a28c	1.3857523e-14
202	0xa086ee1f	-2.2858058e-19
203	0xb68149aa	-3.853075e-06
204	0x3a97c574	0.0011579231
205	0xaf032ce0	-1.1930323e-10
206	0x23e16497	2.443715e-17
207	0xb7ed8bfc	-2.8317787e-05
208	0x395a9aad	0.00020847721
209	0x1889740a	3.553084e-24
210	0xadd988d4	-2.4730808e-11
211	0xa6fcc210	-1.7538613e-15
212	0xb936eb4f	-0.00017444532
213	0x235ffb55	1.2142076e-17
214	0x2ab1485e	3.149173e-13
215	0x2b1cdec2	5.573147e-13
216	0x2b2c3dab	6.1192257e-13
217	0x21248abc	5.5748975e-19
218	0x2bcbeb7e	1.448938e-12
219	0x86505728	-3.9184484e-35
220	0x2ac79230	3.545094e-13
221	0x1e9239cc	1.5482256e-20
222	0xb3e03388	-1.0440186e-07
223	0x373c4db1	1.1223762e-05
224	0x18feef59	6.589914e-24
225	0xb59d5032	-1.1720751e-06
226	0x378a701c	1.6503087e-05
227	0xb7154a5d	-8.898406e-06
228	0xa6fc9b52	-1.7528112e-15
229	0x381b7452	3.706321e-05
230	0xae60d9be	-5.1125097e-11
231	0x27689c5d	3.2281232e-15
232	0x2158d0e7	7.3460127e-19
233	0x2c2e3bb9	2.476004e-12
234	0x1d3ab69a	2.4711298e-21
235	0x0b730950	4.6807104e-32
236	0xb1104c06	-2.0997972e-09
237	0xb541a1ef	-7.2133747e-07
238	0x2f28c9fe	1.5351273e-10
239	0x1fe59cf8	9.7244955e-20
240	0x30ba66b7	1.3562474e-09
241	0xb80ba650	-3.3295073e-05
242	0x94e09ef8	-2.2680922e-26
243	0xaf35e18a	-1.6541982e-10
244	0xaed1f0ee	-9.547017e-11
245	0xb7817584	-1.543272e-05
246	0x19f7cfc9	2.5623125e-23
247	0x303871c3	6.7100475e-10
248	0xade2626e	-2.5736937e-11
249	0xb5eab1c6	-1.7486097e-06
250	0x237b3ced	1.3619639e-17
251	0xb7895bb9	-1.6374384e-05
252	0x2fbe1642	3.4576614e-10
253	0x2f7f7cb5	2.323642e-10
254	0x1255610d	6.7330573e-28
255	0xb8bc4ffd	-8.9794376e-05

positionModel.wpmixerCore.resolutionBranch.0.mixer1.embeddingMixer.3.bias f4 [16]
0	0x3949a238	0.00019229285
1	0x3aa3fa34	0.001251048
2	0xbac1259c	-0.001473594
3	0x384b5e59	4.848684e-05
4	0x3a926757	0.0011169714
5	0x39c25fcd	0.0003707394
6	0xbb0251e3	-0.0019885234
7	0xba998dd1	-0.0011715238
8	0x3aed181a	0.0018088848
9	0x3a24fd79	0.0006293874
10	0x37a85273	2.0065554e-05
11	0x3aa9d9f7	0.0012958635
12	0xba4f6f7d	-0.00079130364
13	0x3a1374e0	0.0005625021
14	0xbb0b11f6	-0.0021220422
15	0xba5ac5a6	-0.0008345492

positionModel.wpmixerCore.resolutionBranch.0.mixer2.tMixer.layers.0.weight f4 [25, 5]
0	0x332e15b3	4.0532267e-08
1	0xb19397ef	-4.295536e-09
2	0x33eca7f9	1.10201604e-07
3	0x33bc066f	8.7556025e-08
4	0x340b0445	1.2946937e-07
5	0xb906fbf7	-0.000128731
6	0x3a177f65	0.0005779176
7	0xbaa17874	-0.0012319223
8	0x39b2495c	0.00034005463
9	0xb9ff4f08	-0.00048696273
10	0xb4adbb2a	-3.235994e-07
11	0x350fe5fd	5.360633e-07
12	0xb55d9a3f	-8.2553373e-07
13	0xb521c7f9	-6.026817e-07
14	0xb4f0bb2b	-4.4839666e-07
15	0xbe4153bb	-0.18879597
16	0xbe3b44e5	-0.18288
17	0xbe3883bb	-0.18019001
18	0xbe353ebf	-0.17699717
19	0xbe3a0ec8	-0.18169701
20	0x3aebb509	0.001798303
21	0x3ae2f878	0.0017316481
22	0x3ad0f36b	0.0015941685
23	0x3aa55d14	0.001261624
24	0x3b10b8bc	0.0022082767
25	0x34377bde	1.7088266e-07
26	0x35577eab	8.027807e-07
27	0xb5bc5b9b	-1.4033752e-06
28	0xb39686be	-7.009429e-08
29	0x350e120b	5.292538e-07
30	0xb94a2c21	-0.0001928066
31	0xb8211349	-3.8403352e-05
32	0xb9612105	-0.00021469973
33	0x39aa9a53	0.00032539907
34	0xb89e311e	-7.543176e-05
35	0x36f23dda	7.2193625e-06
36	0x363bc421	2.7979333e-06
37	0x371dc4d9	9.403761e-06
38	0x36023e1f	1.9407669e-06
39	0x36c36307	5.822981e-06
40	0x2dca9978	2.3032895e-11
41	0xade8eb19	-2.647975e-11
42	0x2d8b8ead	1.5865831e-11
43	0x2e20a344	3.6524797e-11
44	0x2e5a48dc	4.9632173e-11
45	0xab0ef3f9	-5.0787114e-13
46	0x2b1b007d	5.506774e-13
47	0xab2773c9	-5.9491e-13
48	0xabb270fb	-1.2679019e-12
49	0xabbe6368	-1.3527903e-12
50	0x3da97dfc	0.08275983
51	0x3da0d9fb	0.078540765
52	0x3da3ee6b	0.08004459
53	0x3d9f63f0	0.077827334
54	0x3d9e6f4e	0.077360734
55	0xb58775be	-1.0092551e-06
56	0xb637099f	-2.7274725e-06
57	0x36ae6445	5.197277e-06
58	0x35f3cb44	1.8164069e-06
59	0xb65088ad	-3.107397e-06
60	0x3831d2b2	4.2396314e-05
61	0x37510be1	1.24601365e-05
62	0x3889b5b0	6.566511e-05
63	0x3847bcfc	4.7621303e-05
64	0x387f48f7	6.086469e-05
65	0x3527e9aa	6.2552374e-07
66	0x34c8fee9	3.7438375e-07
67	0x357843d0	9.248588e-07
68	0x35021f52	4.847435e-07
69	0x354a8004	7.543715e-07
70	0x3abc6785	0.0014374113
71	0x3aad12c4	0.0013204445
72	0x3ac606f7	0.0015108277
73	0x3a906260	0.0011015646
74	0x3b0926d9	0.0020927696
75	0xb288d8c9	-1.5931066e-08
76	0x30f1d16f	1.7594582e-09
77	0xb34c5d2d	-4.7582194e-08
78	0xb23b67d5	-1.0908441e-08
79	0xb32862e4	-3.920549e-08
80	0xb594a8d3	-1.1075994e-06
81	0xb5b47e44	-1.3447793e-06
82	0xb5b5ab55	-1.3535415e-06
83	0xb53e40eb	-7.0874984e-07
84	0xb59bb1c8	-1.1600141e-06
85	0x290b6d15	3.0958814e-14
86	0x2a87aaed	2.409942e-13
87	0xaa21797a	-1.4341818e-13
88	0xaa9c2cd0	-2.7742262e-13
89	0xaa5758c3	-1.9126631e-13
90	0xb5150af6	-5.5522776e-07
91	0x349ff19d	2.9791855e-07
92	0x3484d077	2.4738594e-07
93	0xb47753fe	-2.3034224e-07
94	0x34ce9d06	3.848474e-07
95	0xb7037468	-7.835311e-06
96	0x37e95dcc	2.7819442e-05
97	0xb8131a0c	-3.507179e-05
98	0xb7fb67bb	-2.9969835e-05
99	0xb82c6f94	-4.111191e-05
100	0x37fc85e8	3.0103096e-05
101	0x37a0a99e	1.915247e-05
102	0xb5446843	-7.316741e-07
103	0xb8453792	-4.7020214e-05
104	0x36c9efff	6.018206e-06
105	0xb49104d8	-2.701188e-07
106	0x33896d05	6.39939e-08
107	0x34157989	1.392092e-07
108	0xb33b4060	-4.359788e-08
109	0x341749db	1.408984e-07
110	0x3d81fc3c	0.06346938
111	0x3d7522cf	0.05984765
112	0x3d7b9e96	0.061430536
113	0x3d823ffd	0.06359861
114	0x3d80f611	0.062969334
115	0x37270ef1	9.9574545e-06
116	0x37820e52	1.5503876e-05
117	0x3789f9ee	1.6448055e-05
118	0xb4d6b90d	-3.9995248e-07
119	0x378b2931	1.6589272e-05
120	0x35dde680	1.6532867e-06
121	0x358e8a1e	1.0620022e-06
122	0x361f3d45	2.372851e-06
123	0x358e57c0	1.0605363e-06
124	0x3602f452	1.9513723e-06

positionModel.wpmixerCore.resolutionBranch.0.mixer2.tMixer.layers.0.bias f4 [25]
0	0xb41c0c68	-1.4533146e-07
1	0x3ac24105	0.0014820403
2	0xb51ac6c9	-5.765874e-07
3	0xbda413ef	-0.080116145
4	0x37e36b79	2.7110555e-05
5	0xb60538da	-1.9851636e-06
6	0x39430869	0.00018599782
7	0xb69a584c	-4.5998368e-06
8	0xae644ee2	-5.191126e-11
9	0x2bff26c0	1.8129595e-12
10	0xbca21ee7	-0.019790126
11	0xb608c1d2	-2.0378397e-06
12	0xb7f132ac	-2.8753035e-05
13	0xb5d6b744	-1.599758e-06
14	0x39fff19c	0.00048817403
15	0x34099bf6	1.2815858e-07
16	0x35a13ecb	1.201371e-06
17	0xaa17f379	-1.3495966e-13
18	0x339b02fb	7.218292e-08
19	0x3819f2f2	3.6704303e-05
20	0xb7422beb	-1.15735265e-05
21	0xb20ecc6a	-8.311966e-09
22	0xbc31314c	-0.010814976
23	0x35f8b38f	1.8529698e-06
24	0xb5de10a9	-1.6545138e-06

positionModel.wpmixerCore.resolutionBranch.0.mixer2.tMixer.layers.3.weight f4 [5, 25]
0	0xb32c8bb7	-4.017394e-08
1	0xb95bb2cb	-0.00020952073
2	0xb3b43a0d	-8.3924625e-08
3	0xbd766891	-0.060158316
4	0xbaf28312	-0.0018502197
5	0x344edb7c	1.9265093e-07
6	0x38fd4c6d	0.000120782155
7	0x364df9ae	3.0692713e-06
8	0xae5c91fa	-5.0151862e-11
9	0x2bab8357	1.2186735e-12
10	0xbd490607	-0.049078014
11	0xb5b4401b	-1.3429702e-06
12	0xb7405569	-1.1463978e-05
13	0x34926f33	2.7275527e-07
14	0xbae8ae4a	-0.0017752138
15	0xb23e03c9	-1.1060316e-08
16	0xb5013013	-4.81262e-07
17	0x2b3437a0	6.402604e-13
18	0x344e17d5	1.9193915e-07
19	0x36e80db9	6.9157363e-06
20	0xb81fdb29	-3.8112663e-05
21	0xb2b174d0	-2.0658632e-08
22	0xbd379fd9	-0.044830177
23	0x388fe706	6.861803e-05
24	0x35c93432	1.4990858e-06
25	0x32f10bb4	2.8061415e-08
26	0xb9597d53	-0.0002074142
27	0xb4d56224	-3.9745748e-07
28	0xbd73ac01	-0.059490208
29	0xbaccbfee	-0.0015621164
30	0xb4a0d9d1	-2.9960805e-07
31	0xb86a01c0	-5.5791577e-05
32	0x36ff7832	7.613585e-06
33	0xadc85c96	-2.2778484e-11
34	0xaaed8927	-4.2194826e-13
35	0xbd44a592	-0.048009463
36	0xb5ac3b86	-1.2832322e-06
37	0x38329122	4.2573673e-05
38	0x3580ecae	9.605626e-07
39	0xba82eb28	-0.0009988295
40	0xb339833a	-4.319302e-08
41	0xb570888d	-8.9605675e-07
42	0x2ac4aada	3.4935146e-13
43	0xb49ee219	-2.95943e-07
44	0xb5cd3948	-1.5290361e-06
45	0x37b1d9ec	2.1201522e-05
46	0x33028cf5	3.0396183e-08
47	0xbd3afa51	-0.045648877
48	0x383cbd74	4.4999135e-05
49	0x360a3b56	2.059814e-06
50	0xb34de720	-4.794049e-08
51	0x381524cc	3.5558638e-05
52	0x34d85dba	4.030133e-07
53	0xbd635c6f	-0.055508073
54	0xba96bb69	-0.0011499944
55	0x3568f8c2	8.6788725e-07
56	0x38484db8	4.7756097e-05
57	0x368e1871	4.234775e-06
58	0xae524855	-4.7812716e-11
59	0x2bb1d240	1.2634963e-12
60	0xbd3e66c8	-0.04648474
61	0xb583eeb1	-9.829729e-07
62	0x3785b8a5	1.5940817e-05
63	0x34152811	1.3891282e-07
64	0xba3bbd4f	-0.0007161693
65	0xb25fe4f4	-1.3032366e-08
66	0xb50429fe	-4.923494e-07
67	0x2b3599d6	6.451761e-13
68	0xb47c1d39	-2.347996e-07
69	0x37d3183d	2.5164447e-05
70	0x37936213	1.7569435e-05
71	0xb3dee23a	-1.0378831e-07
72	0xbd3865e1	-0.045019034
73	0x389aec0f	7.3872616e-05
74	0x353cc1a0	7.031722e-07
75	0xb378723d	-5.78459e-08
76	0xb957a911	-0.0002056698
77	0x350728c3	5.0350735e-07
78	0xbd6c2368	-0.057650954
79	0xbae76a60	-0.0017655604
80	0xb4ed5248	-4.4204558e-07
81	0x36d670a1	6.3908087e-06
82	0x36303f42	2.6262865e-06
83	0xae3f0c62	-4.343937e-11
84	0x2b70702b	8.542079e-13
85	0xbd453e8e	-0.04815536
86	0x35c07b04	1.4340917e-06
87	0x36d3ad14	6.308439e-06
88	0x3519cb11	5.729244e-07
89	0xbacbb931	-0.0015542862
90	0xb2d41891	-2.469122e-08
91	0xb53536d7	-6.7507557e-07
92	0x2b2e4f7d	6.192753e-13
93	0x345dd55f	2.0659853e-07
94	0x37f87d6b	2.9622306e-05
95	0xb6ce3767	-6.145728e-06
96	0x339969ca	7.1438606e-08
97	0xbd306028	-0.04306045
98	0x38961808	7.1570335e-05
99	0x35bf5254	1.425457e-06
100	0xb3b9664c	-8.6333415e-08
101	0x3a6304fc	0.00086601055
102	0x3546a466	7.399998e-07
103	0xbd6a4efa	-0.057204224
104	0xbabf6b01	-0.0014604033
105	0x3472e9dc	2.2623084e-07
106	0x39225578	0.00015481364
107	0xb6380376	-2.742015e-06
108	0xae8e3de9	-6.46841e-11
109	0x2bd1bebe	1.4903285e-12
110	0xbd497ee9	-0.049193297
111	0x35a35f1b	1.2172126e-06
112	0xb7e0ed21	-2.6813303e-05
113	0x3484293c	2.4616918e-07
114	0xbae7b5ba	-0.001767806
115	0xb1b58f6c	-5.2840985e-09
116	0xb3a883ef	-7.847108e-08
117	0x2b544b28	7.542183e-13
118	0xb333481d	-4.1742272e-08
119	0x3834b236	4.3081316e-05
120	0xb65082db	-3.1070583e-06
121	0xb34a8295	-4.7150554e-08
122	0xbd35be83	-0.04437114
123	0x383f0911	4.5546392e-05
124	0x34cbe62f	3.7979177e-07

positionModel.wpmixerCore.resolutionBranch.0.mixer2.tMixer.layers.3.bias f4 [5]
0	0xbab536df	-0.0013825557
1	0xba8ecccf	-0.0010894778
2	0xbac4cae4	-0.0015014079
3	0xbaa91a6d	-0.0012901552
4	0xbaa48c63	-0.0012554046

positionModel.wpmixerCore.resolutionBranch.0.mixer2.norm1.weight f4 [18]
0	0x3ea70f84	0.32629025
1	0xba9244d1	-0.0011159425
2	0xb9a36294	-0.0003116323
3	0x3abbadd9	0.0014318778
4	0x3b2af331	0.0026084895
5	0x3a9ff6f5	0.0012204336
6	0x3ea00647	0.3125479
7	0x383a643d	4.443921e-05
8	0xba53f4da	-0.0008085497
9	0xb8d944c1	-0.00010360173
10	0xba1ebcb9	-0.00060553435
11	0x38a11016	7.6800745e-05
12	0x3aa6fb50	0.0012739692
13	0xba2efe01	-0.0006675423
14	0xbb11c9d3	-0.002224554
15	0xb91d5d88	-0.0001500753
16	0xbb3a043a	-0.0028383867
17	0x3802e2c5	3.120561e-05

positionModel.wpmixerCore.resolutionBranch.0.mixer2.norm1.bias f4 [18]
0	0x3c5b2e5c	0.013377752
1	0x3a8ba90e	0.0010655241
2	0xb9b078a6	-0.00033659226
3	0xb995aa50	-0.00028546387
4	0x3b62ecbd	0.003462597
5	0xba8710d8	-0.0010304702
6	0x3d721e6d	0.059111048
7	0xb89ce885	-7.48197e-05
8	0xbaf0c11b	-0.0018368097
9	0xba0f717b	-0.0005471927
10	0x3a091e80	0.000523068
11	0xb95bd585	-0.0002096501
12	0x3aa8567f	0.0012843161
13	0xb8c5a805	-9.424988e-05
14	0xba14eeb0	-0.0005681319
15	0xb613352c	-2.1935657e-06
16	0xba0d423d	-0.00053885934
17	0xba18ae34	-0.0005824298

positionModel.wpmixerCore.resolutionBranch.0.mixer2.norm1.running_mean f4 [18]
0	0xb88fa259	-6.849011e-05
1	0xb885a6f4	-6.373032e-05
2	0xb8826181	-6.2170446e-05
3	0xb8889c07	-6.514048e-05
4	0xb8807c3a	-6.1266546e-05
5	0xb886b860	-6.4239604e-05
6	0xb8846300	-6.312691e-05
7	0xb88449bb	-6.307984e-05
8	0xb8863ee1	-6.40133e-05
9	0xb88ddbc1	-6.764336e-05
10	0xb887682f	-6.456707e-05
11	0xb88d5183	-6.738587e-05
12	0xb8882889	-6.4925356e-05
13	0xb8895d0e	-6.550002e-05
14	0xb8826fe4	-6.219724e-05
15	0xb88c313e	-6.684892e-05
16	0xb8870f35	-6.440134e-05
17	0xb8923ed9	-6.973529e-05

positionModel.wpmixerCore.resolutionBranch.0.mixer2.norm1.running_var f4 [18]
0	0x3b0bc616	0.0021327785
1	0x398e73e9	0.0002717071
2	0x390c3a18	0.00013373082
3	0x395888ee	0.00020650376
4	0x38a00466	7.630214e-05
5	0x398b057f	0.0002651624
6	0x39684929	0.00022152498
7	0x39865d00	0.00025627762
8	0x389f3f43	7.593494e-05
9	0x399e9c1d	0.00030252422
10	0x3894e5c8	7.09999e-05
11	0x399d2fa2	0.00029980863
12	0x3848ccb3	4.7874357e-05
13	0x39a383bc	0.00031187932
14	0x38b37fc6	8.559185e-05
15	0x397753f7	0.00023587035
16	0x3919c31a	0.00014663898
17	0x398a6659	0.00026397666

positionModel.wpmixerCore.resolutionBranch.0.mixer2.norm2.weight f4 [18]
0	0x3dbf0220	0.09326577
1	0xbab27007	-0.0013613709
2	0x3aebec64	0.0017999527
3	0x3a9d789a	0.0012014091
4	0xbb87560f	-0.004130132
5	0x3a68a689	0.00088749133
6	0x3dbfbae0	0.093618155
7	0x399b81c0	0.00029660575
8	0xbad81ad2	-0.0016487485
9	0xba0265ba	-0.0004974265
10	0x396cbebf	0.00022577772
11	0xb95bb54a	-0.00020953003
12	0xbb406517	-0.002935713
13	0xb9bc4a13	-0.00035913344
14	0x3a920d22	0.001114283
15	0xba62253d	-0.0008626765
16	0x3a966733	0.0011474848
17	0xb877b40a	-5.9057063e-05

positionModel.wpmixerCore.resolutionBranch.0.mixer2.norm2.bias f4 [18]
0	0xb666c2c2	-3.4386035e-06
1	0xb5f8842b	-1.8515906e-06
2	0xb637b80d	-2.7376257e-06
3	0xb4020b68	-1.2111343e-07
4	0xb63d7387	-2.823044e-06
5	0xb6b38757	-5.3503713e-06
6	0x35656907	8.546198e-07
7	0x3606539f	2.001623e-06
8	0x34d62c69	3.989292e-07
9	0x36208949	2.3921768e-06
10	0x368ffe48	4.2913343e-06
11	0xb500e980	-4.8023503e-07
12	0xb54455c0	-7.314047e-07
13	0x360c448c	2.0901525e-06
14	0x361ea6ca	2.3640919e-06
15	0xb6479b2c	-2.9743633e-06
16	0xb66699ef	-3.4362272e-06
17	0x35b75f4f	1.3662301e-06
